{"format": "graph-model", "generatedBy": "1.14.0", "convertedBy": "TensorFlow.js Converter v1.2.10", "modelTopology": {"node": [{"name": "input_1", "op": "Placeholder", "attr": {"shape": {"shape": {"dim": [{"size": "-1"}, {"size": "256"}, {"size": "256"}, {"size": "3"}]}}, "dtype": {"type": "DT_FLOAT"}}}, {"name": "StatefulPartitionedCall/model/block1_conv1/Conv2D/ReadVariableOp", "op": "Const", "attr": {"value": {"tensor": {"dtype": "DT_FLOAT", "tensorShape": {"dim": [{"size": "3"}, {"size": "3"}, {"size": "3"}, {"size": "32"}]}}}, "dtype": {"type": "DT_FLOAT"}}}, {"name": "StatefulPartitionedCall/model/block1_conv1/Conv2D_bn_offset", "op": "Const", "attr": {"dtype": {"type": "DT_FLOAT"}, "value": {"tensor": {"dtype": "DT_FLOAT", "tensorShape": {"dim": [{"size": "32"}]}}}}}, {"name": "StatefulPartitionedCall/model/block1_conv2/Conv2D/ReadVariableOp", "op": "Const", "attr": {"value": {"tensor": {"dtype": "DT_FLOAT", "tensorShape": {"dim": [{"size": "3"}, {"size": "3"}, {"size": "32"}, {"size": "64"}]}}}, "dtype": {"type": "DT_FLOAT"}}}, {"name": "StatefulPartitionedCall/model/block1_conv2/Conv2D_bn_offset", "op": "Const", "attr": {"dtype": {"type": "DT_FLOAT"}, "value": {"tensor": {"dtype": "DT_FLOAT", "tensorShape": {"dim": [{"size": "64"}]}}}}}, {"name": "StatefulPartitionedCall/model/conv2d/Conv2D/ReadVariableOp", "op": "Const", "attr": {"value": {"tensor": {"dtype": "DT_FLOAT", "tensorShape": {"dim": [{"size": "1"}, {"size": "1"}, {"size": "64"}, {"size": "128"}]}}}, "dtype": {"type": "DT_FLOAT"}}}, {"name": "StatefulPartitionedCall/model/conv2d/Conv2D_bn_offset", "op": "Const", "attr": {"dtype": {"type": "DT_FLOAT"}, "value": {"tensor": {"dtype": "DT_FLOAT", "tensorShape": {"dim": [{"size": "128"}]}}}}}, {"name": "StatefulPartitionedCall/model/block2_sepconv1/separable_conv2d/ReadVariableOp_1", "op": "Const", "attr": {"dtype": {"type": "DT_FLOAT"}, "value": {"tensor": {"dtype": "DT_FLOAT", "tensorShape": {"dim": [{"size": "1"}, {"size": "1"}, {"size": "64"}, {"size": "128"}]}}}}}, {"name": "StatefulPartitionedCall/model/block2_sepconv1/separable_conv2d_bn_offset", "op": "Const", "attr": {"value": {"tensor": {"dtype": "DT_FLOAT", "tensorShape": {"dim": [{"size": "128"}]}}}, "dtype": {"type": "DT_FLOAT"}}}, {"name": "StatefulPartitionedCall/model/block2_sepconv2/separable_conv2d/ReadVariableOp_1", "op": "Const", "attr": {"dtype": {"type": "DT_FLOAT"}, "value": {"tensor": {"dtype": "DT_FLOAT", "tensorShape": {"dim": [{"size": "1"}, {"size": "1"}, {"size": "128"}, {"size": "128"}]}}}}}, {"name": "StatefulPartitionedCall/model/block2_sepconv2/separable_conv2d_bn_offset", "op": "Const", "attr": {"value": {"tensor": {"dtype": "DT_FLOAT", "tensorShape": {"dim": [{"size": "128"}]}}}, "dtype": {"type": "DT_FLOAT"}}}, {"name": "StatefulPartitionedCall/model/conv2d_1/Conv2D/ReadVariableOp", "op": "Const", "attr": {"value": {"tensor": {"dtype": "DT_FLOAT", "tensorShape": {"dim": [{"size": "1"}, {"size": "1"}, {"size": "128"}, {"size": "256"}]}}}, "dtype": {"type": "DT_FLOAT"}}}, {"name": "StatefulPartitionedCall/model/conv2d_1/Conv2D_bn_offset", "op": "Const", "attr": {"value": {"tensor": {"dtype": "DT_FLOAT", "tensorShape": {"dim": [{"size": "256"}]}}}, "dtype": {"type": "DT_FLOAT"}}}, {"name": "StatefulPartitionedCall/model/block3_sepconv1/separable_conv2d/ReadVariableOp_1", "op": "Const", "attr": {"value": {"tensor": {"dtype": "DT_FLOAT", "tensorShape": {"dim": [{"size": "1"}, {"size": "1"}, {"size": "128"}, {"size": "256"}]}}}, "dtype": {"type": "DT_FLOAT"}}}, {"name": "StatefulPartitionedCall/model/block3_sepconv1/separable_conv2d_bn_offset", "op": "Const", "attr": {"value": {"tensor": {"dtype": "DT_FLOAT", "tensorShape": {"dim": [{"size": "256"}]}}}, "dtype": {"type": "DT_FLOAT"}}}, {"name": "StatefulPartitionedCall/model/block3_sepconv2/separable_conv2d/ReadVariableOp_1", "op": "Const", "attr": {"value": {"tensor": {"dtype": "DT_FLOAT", "tensorShape": {"dim": [{"size": "1"}, {"size": "1"}, {"size": "256"}, {"size": "256"}]}}}, "dtype": {"type": "DT_FLOAT"}}}, {"name": "StatefulPartitionedCall/model/block3_sepconv2/separable_conv2d_bn_offset", "op": "Const", "attr": {"value": {"tensor": {"dtype": "DT_FLOAT", "tensorShape": {"dim": [{"size": "256"}]}}}, "dtype": {"type": "DT_FLOAT"}}}, {"name": "StatefulPartitionedCall/model/conv2d_2/Conv2D/ReadVariableOp", "op": "Const", "attr": {"value": {"tensor": {"dtype": "DT_FLOAT", "tensorShape": {"dim": [{"size": "1"}, {"size": "1"}, {"size": "256"}, {"size": "728"}]}}}, "dtype": {"type": "DT_FLOAT"}}}, {"name": "StatefulPartitionedCall/model/conv2d_2/Conv2D_bn_offset", "op": "Const", "attr": {"dtype": {"type": "DT_FLOAT"}, "value": {"tensor": {"dtype": "DT_FLOAT", "tensorShape": {"dim": [{"size": "728"}]}}}}}, {"name": "StatefulPartitionedCall/model/block4_sepconv1/separable_conv2d/ReadVariableOp_1", "op": "Const", "attr": {"value": {"tensor": {"dtype": "DT_FLOAT", "tensorShape": {"dim": [{"size": "1"}, {"size": "1"}, {"size": "256"}, {"size": "728"}]}}}, "dtype": {"type": "DT_FLOAT"}}}, {"name": "StatefulPartitionedCall/model/block4_sepconv1/separable_conv2d_bn_offset", "op": "Const", "attr": {"value": {"tensor": {"dtype": "DT_FLOAT", "tensorShape": {"dim": [{"size": "728"}]}}}, "dtype": {"type": "DT_FLOAT"}}}, {"name": "StatefulPartitionedCall/model/block4_sepconv2/separable_conv2d/ReadVariableOp_1", "op": "Const", "attr": {"value": {"tensor": {"dtype": "DT_FLOAT", "tensorShape": {"dim": [{"size": "1"}, {"size": "1"}, {"size": "728"}, {"size": "728"}]}}}, "dtype": {"type": "DT_FLOAT"}}}, {"name": "StatefulPartitionedCall/model/block4_sepconv2/separable_conv2d_bn_offset", "op": "Const", "attr": {"value": {"tensor": {"dtype": "DT_FLOAT", "tensorShape": {"dim": [{"size": "728"}]}}}, "dtype": {"type": "DT_FLOAT"}}}, {"name": "StatefulPartitionedCall/model/block5_sepconv1/separable_conv2d/ReadVariableOp_1", "op": "Const", "attr": {"value": {"tensor": {"dtype": "DT_FLOAT", "tensorShape": {"dim": [{"size": "1"}, {"size": "1"}, {"size": "728"}, {"size": "728"}]}}}, "dtype": {"type": "DT_FLOAT"}}}, {"name": "StatefulPartitionedCall/model/block5_sepconv1/separable_conv2d_bn_offset", "op": "Const", "attr": {"dtype": {"type": "DT_FLOAT"}, "value": {"tensor": {"dtype": "DT_FLOAT", "tensorShape": {"dim": [{"size": "728"}]}}}}}, {"name": "StatefulPartitionedCall/model/block5_sepconv2/separable_conv2d/ReadVariableOp_1", "op": "Const", "attr": {"dtype": {"type": "DT_FLOAT"}, "value": {"tensor": {"dtype": "DT_FLOAT", "tensorShape": {"dim": [{"size": "1"}, {"size": "1"}, {"size": "728"}, {"size": "728"}]}}}}}, {"name": "StatefulPartitionedCall/model/block5_sepconv2/separable_conv2d_bn_offset", "op": "Const", "attr": {"dtype": {"type": "DT_FLOAT"}, "value": {"tensor": {"dtype": "DT_FLOAT", "tensorShape": {"dim": [{"size": "728"}]}}}}}, {"name": "StatefulPartitionedCall/model/block5_sepconv3/separable_conv2d/ReadVariableOp_1", "op": "Const", "attr": {"dtype": {"type": "DT_FLOAT"}, "value": {"tensor": {"dtype": "DT_FLOAT", "tensorShape": {"dim": [{"size": "1"}, {"size": "1"}, {"size": "728"}, {"size": "728"}]}}}}}, {"name": "StatefulPartitionedCall/model/block5_sepconv3/separable_conv2d_bn_offset", "op": "Const", "attr": {"value": {"tensor": {"dtype": "DT_FLOAT", "tensorShape": {"dim": [{"size": "728"}]}}}, "dtype": {"type": "DT_FLOAT"}}}, {"name": "StatefulPartitionedCall/model/block6_sepconv1/separable_conv2d/ReadVariableOp_1", "op": "Const", "attr": {"value": {"tensor": {"dtype": "DT_FLOAT", "tensorShape": {"dim": [{"size": "1"}, {"size": "1"}, {"size": "728"}, {"size": "728"}]}}}, "dtype": {"type": "DT_FLOAT"}}}, {"name": "StatefulPartitionedCall/model/block6_sepconv1/separable_conv2d_bn_offset", "op": "Const", "attr": {"dtype": {"type": "DT_FLOAT"}, "value": {"tensor": {"dtype": "DT_FLOAT", "tensorShape": {"dim": [{"size": "728"}]}}}}}, {"name": "StatefulPartitionedCall/model/block6_sepconv2/separable_conv2d/ReadVariableOp_1", "op": "Const", "attr": {"value": {"tensor": {"dtype": "DT_FLOAT", "tensorShape": {"dim": [{"size": "1"}, {"size": "1"}, {"size": "728"}, {"size": "728"}]}}}, "dtype": {"type": "DT_FLOAT"}}}, {"name": "StatefulPartitionedCall/model/block6_sepconv2/separable_conv2d_bn_offset", "op": "Const", "attr": {"value": {"tensor": {"dtype": "DT_FLOAT", "tensorShape": {"dim": [{"size": "728"}]}}}, "dtype": {"type": "DT_FLOAT"}}}, {"name": "StatefulPartitionedCall/model/block6_sepconv3/separable_conv2d/ReadVariableOp_1", "op": "Const", "attr": {"value": {"tensor": {"dtype": "DT_FLOAT", "tensorShape": {"dim": [{"size": "1"}, {"size": "1"}, {"size": "728"}, {"size": "728"}]}}}, "dtype": {"type": "DT_FLOAT"}}}, {"name": "StatefulPartitionedCall/model/block6_sepconv3/separable_conv2d_bn_offset", "op": "Const", "attr": {"value": {"tensor": {"dtype": "DT_FLOAT", "tensorShape": {"dim": [{"size": "728"}]}}}, "dtype": {"type": "DT_FLOAT"}}}, {"name": "StatefulPartitionedCall/model/block7_sepconv1/separable_conv2d/ReadVariableOp_1", "op": "Const", "attr": {"dtype": {"type": "DT_FLOAT"}, "value": {"tensor": {"dtype": "DT_FLOAT", "tensorShape": {"dim": [{"size": "1"}, {"size": "1"}, {"size": "728"}, {"size": "728"}]}}}}}, {"name": "StatefulPartitionedCall/model/block7_sepconv1/separable_conv2d_bn_offset", "op": "Const", "attr": {"dtype": {"type": "DT_FLOAT"}, "value": {"tensor": {"dtype": "DT_FLOAT", "tensorShape": {"dim": [{"size": "728"}]}}}}}, {"name": "StatefulPartitionedCall/model/block7_sepconv2/separable_conv2d/ReadVariableOp_1", "op": "Const", "attr": {"value": {"tensor": {"dtype": "DT_FLOAT", "tensorShape": {"dim": [{"size": "1"}, {"size": "1"}, {"size": "728"}, {"size": "728"}]}}}, "dtype": {"type": "DT_FLOAT"}}}, {"name": "StatefulPartitionedCall/model/block7_sepconv2/separable_conv2d_bn_offset", "op": "Const", "attr": {"value": {"tensor": {"dtype": "DT_FLOAT", "tensorShape": {"dim": [{"size": "728"}]}}}, "dtype": {"type": "DT_FLOAT"}}}, {"name": "StatefulPartitionedCall/model/block7_sepconv3/separable_conv2d/ReadVariableOp_1", "op": "Const", "attr": {"dtype": {"type": "DT_FLOAT"}, "value": {"tensor": {"dtype": "DT_FLOAT", "tensorShape": {"dim": [{"size": "1"}, {"size": "1"}, {"size": "728"}, {"size": "728"}]}}}}}, {"name": "StatefulPartitionedCall/model/block7_sepconv3/separable_conv2d_bn_offset", "op": "Const", "attr": {"dtype": {"type": "DT_FLOAT"}, "value": {"tensor": {"dtype": "DT_FLOAT", "tensorShape": {"dim": [{"size": "728"}]}}}}}, {"name": "StatefulPartitionedCall/model/block8_sepconv1/separable_conv2d/ReadVariableOp_1", "op": "Const", "attr": {"dtype": {"type": "DT_FLOAT"}, "value": {"tensor": {"dtype": "DT_FLOAT", "tensorShape": {"dim": [{"size": "1"}, {"size": "1"}, {"size": "728"}, {"size": "728"}]}}}}}, {"name": "StatefulPartitionedCall/model/block8_sepconv1/separable_conv2d_bn_offset", "op": "Const", "attr": {"value": {"tensor": {"dtype": "DT_FLOAT", "tensorShape": {"dim": [{"size": "728"}]}}}, "dtype": {"type": "DT_FLOAT"}}}, {"name": "StatefulPartitionedCall/model/block8_sepconv2/separable_conv2d/ReadVariableOp_1", "op": "Const", "attr": {"dtype": {"type": "DT_FLOAT"}, "value": {"tensor": {"dtype": "DT_FLOAT", "tensorShape": {"dim": [{"size": "1"}, {"size": "1"}, {"size": "728"}, {"size": "728"}]}}}}}, {"name": "StatefulPartitionedCall/model/block8_sepconv2/separable_conv2d_bn_offset", "op": "Const", "attr": {"value": {"tensor": {"dtype": "DT_FLOAT", "tensorShape": {"dim": [{"size": "728"}]}}}, "dtype": {"type": "DT_FLOAT"}}}, {"name": "StatefulPartitionedCall/model/block8_sepconv3/separable_conv2d/ReadVariableOp_1", "op": "Const", "attr": {"value": {"tensor": {"dtype": "DT_FLOAT", "tensorShape": {"dim": [{"size": "1"}, {"size": "1"}, {"size": "728"}, {"size": "728"}]}}}, "dtype": {"type": "DT_FLOAT"}}}, {"name": "StatefulPartitionedCall/model/block8_sepconv3/separable_conv2d_bn_offset", "op": "Const", "attr": {"value": {"tensor": {"dtype": "DT_FLOAT", "tensorShape": {"dim": [{"size": "728"}]}}}, "dtype": {"type": "DT_FLOAT"}}}, {"name": "StatefulPartitionedCall/model/block9_sepconv1/separable_conv2d/ReadVariableOp_1", "op": "Const", "attr": {"dtype": {"type": "DT_FLOAT"}, "value": {"tensor": {"dtype": "DT_FLOAT", "tensorShape": {"dim": [{"size": "1"}, {"size": "1"}, {"size": "728"}, {"size": "728"}]}}}}}, {"name": "StatefulPartitionedCall/model/block9_sepconv1/separable_conv2d_bn_offset", "op": "Const", "attr": {"dtype": {"type": "DT_FLOAT"}, "value": {"tensor": {"dtype": "DT_FLOAT", "tensorShape": {"dim": [{"size": "728"}]}}}}}, {"name": "StatefulPartitionedCall/model/block9_sepconv2/separable_conv2d/ReadVariableOp_1", "op": "Const", "attr": {"value": {"tensor": {"dtype": "DT_FLOAT", "tensorShape": {"dim": [{"size": "1"}, {"size": "1"}, {"size": "728"}, {"size": "728"}]}}}, "dtype": {"type": "DT_FLOAT"}}}, {"name": "StatefulPartitionedCall/model/block9_sepconv2/separable_conv2d_bn_offset", "op": "Const", "attr": {"dtype": {"type": "DT_FLOAT"}, "value": {"tensor": {"dtype": "DT_FLOAT", "tensorShape": {"dim": [{"size": "728"}]}}}}}, {"name": "StatefulPartitionedCall/model/block9_sepconv3/separable_conv2d/ReadVariableOp_1", "op": "Const", "attr": {"dtype": {"type": "DT_FLOAT"}, "value": {"tensor": {"dtype": "DT_FLOAT", "tensorShape": {"dim": [{"size": "1"}, {"size": "1"}, {"size": "728"}, {"size": "728"}]}}}}}, {"name": "StatefulPartitionedCall/model/block9_sepconv3/separable_conv2d_bn_offset", "op": "Const", "attr": {"dtype": {"type": "DT_FLOAT"}, "value": {"tensor": {"dtype": "DT_FLOAT", "tensorShape": {"dim": [{"size": "728"}]}}}}}, {"name": "StatefulPartitionedCall/model/block10_sepconv1/separable_conv2d/ReadVariableOp_1", "op": "Const", "attr": {"dtype": {"type": "DT_FLOAT"}, "value": {"tensor": {"dtype": "DT_FLOAT", "tensorShape": {"dim": [{"size": "1"}, {"size": "1"}, {"size": "728"}, {"size": "728"}]}}}}}, {"name": "StatefulPartitionedCall/model/block10_sepconv1/separable_conv2d_bn_offset", "op": "Const", "attr": {"dtype": {"type": "DT_FLOAT"}, "value": {"tensor": {"dtype": "DT_FLOAT", "tensorShape": {"dim": [{"size": "728"}]}}}}}, {"name": "StatefulPartitionedCall/model/block10_sepconv2/separable_conv2d/ReadVariableOp_1", "op": "Const", "attr": {"dtype": {"type": "DT_FLOAT"}, "value": {"tensor": {"dtype": "DT_FLOAT", "tensorShape": {"dim": [{"size": "1"}, {"size": "1"}, {"size": "728"}, {"size": "728"}]}}}}}, {"name": "StatefulPartitionedCall/model/block10_sepconv2/separable_conv2d_bn_offset", "op": "Const", "attr": {"value": {"tensor": {"dtype": "DT_FLOAT", "tensorShape": {"dim": [{"size": "728"}]}}}, "dtype": {"type": "DT_FLOAT"}}}, {"name": "StatefulPartitionedCall/model/block10_sepconv3/separable_conv2d/ReadVariableOp_1", "op": "Const", "attr": {"dtype": {"type": "DT_FLOAT"}, "value": {"tensor": {"dtype": "DT_FLOAT", "tensorShape": {"dim": [{"size": "1"}, {"size": "1"}, {"size": "728"}, {"size": "728"}]}}}}}, {"name": "StatefulPartitionedCall/model/block10_sepconv3/separable_conv2d_bn_offset", "op": "Const", "attr": {"value": {"tensor": {"dtype": "DT_FLOAT", "tensorShape": {"dim": [{"size": "728"}]}}}, "dtype": {"type": "DT_FLOAT"}}}, {"name": "StatefulPartitionedCall/model/block11_sepconv1/separable_conv2d/ReadVariableOp_1", "op": "Const", "attr": {"value": {"tensor": {"dtype": "DT_FLOAT", "tensorShape": {"dim": [{"size": "1"}, {"size": "1"}, {"size": "728"}, {"size": "728"}]}}}, "dtype": {"type": "DT_FLOAT"}}}, {"name": "StatefulPartitionedCall/model/block11_sepconv1/separable_conv2d_bn_offset", "op": "Const", "attr": {"dtype": {"type": "DT_FLOAT"}, "value": {"tensor": {"dtype": "DT_FLOAT", "tensorShape": {"dim": [{"size": "728"}]}}}}}, {"name": "StatefulPartitionedCall/model/block11_sepconv2/separable_conv2d/ReadVariableOp_1", "op": "Const", "attr": {"dtype": {"type": "DT_FLOAT"}, "value": {"tensor": {"dtype": "DT_FLOAT", "tensorShape": {"dim": [{"size": "1"}, {"size": "1"}, {"size": "728"}, {"size": "728"}]}}}}}, {"name": "StatefulPartitionedCall/model/block11_sepconv2/separable_conv2d_bn_offset", "op": "Const", "attr": {"value": {"tensor": {"dtype": "DT_FLOAT", "tensorShape": {"dim": [{"size": "728"}]}}}, "dtype": {"type": "DT_FLOAT"}}}, {"name": "StatefulPartitionedCall/model/block11_sepconv3/separable_conv2d/ReadVariableOp_1", "op": "Const", "attr": {"dtype": {"type": "DT_FLOAT"}, "value": {"tensor": {"dtype": "DT_FLOAT", "tensorShape": {"dim": [{"size": "1"}, {"size": "1"}, {"size": "728"}, {"size": "728"}]}}}}}, {"name": "StatefulPartitionedCall/model/block11_sepconv3/separable_conv2d_bn_offset", "op": "Const", "attr": {"dtype": {"type": "DT_FLOAT"}, "value": {"tensor": {"dtype": "DT_FLOAT", "tensorShape": {"dim": [{"size": "728"}]}}}}}, {"name": "StatefulPartitionedCall/model/block12_sepconv1/separable_conv2d/ReadVariableOp_1", "op": "Const", "attr": {"value": {"tensor": {"dtype": "DT_FLOAT", "tensorShape": {"dim": [{"size": "1"}, {"size": "1"}, {"size": "728"}, {"size": "728"}]}}}, "dtype": {"type": "DT_FLOAT"}}}, {"name": "StatefulPartitionedCall/model/block12_sepconv1/separable_conv2d_bn_offset", "op": "Const", "attr": {"value": {"tensor": {"dtype": "DT_FLOAT", "tensorShape": {"dim": [{"size": "728"}]}}}, "dtype": {"type": "DT_FLOAT"}}}, {"name": "StatefulPartitionedCall/model/block12_sepconv2/separable_conv2d/ReadVariableOp_1", "op": "Const", "attr": {"dtype": {"type": "DT_FLOAT"}, "value": {"tensor": {"dtype": "DT_FLOAT", "tensorShape": {"dim": [{"size": "1"}, {"size": "1"}, {"size": "728"}, {"size": "728"}]}}}}}, {"name": "StatefulPartitionedCall/model/block12_sepconv2/separable_conv2d_bn_offset", "op": "Const", "attr": {"dtype": {"type": "DT_FLOAT"}, "value": {"tensor": {"dtype": "DT_FLOAT", "tensorShape": {"dim": [{"size": "728"}]}}}}}, {"name": "StatefulPartitionedCall/model/block12_sepconv3/separable_conv2d/ReadVariableOp_1", "op": "Const", "attr": {"value": {"tensor": {"dtype": "DT_FLOAT", "tensorShape": {"dim": [{"size": "1"}, {"size": "1"}, {"size": "728"}, {"size": "728"}]}}}, "dtype": {"type": "DT_FLOAT"}}}, {"name": "StatefulPartitionedCall/model/block12_sepconv3/separable_conv2d_bn_offset", "op": "Const", "attr": {"value": {"tensor": {"dtype": "DT_FLOAT", "tensorShape": {"dim": [{"size": "728"}]}}}, "dtype": {"type": "DT_FLOAT"}}}, {"name": "StatefulPartitionedCall/model/block13_sepconv1/separable_conv2d/ReadVariableOp_1", "op": "Const", "attr": {"dtype": {"type": "DT_FLOAT"}, "value": {"tensor": {"dtype": "DT_FLOAT", "tensorShape": {"dim": [{"size": "1"}, {"size": "1"}, {"size": "728"}, {"size": "728"}]}}}}}, {"name": "StatefulPartitionedCall/model/block13_sepconv1/separable_conv2d_bn_offset", "op": "Const", "attr": {"value": {"tensor": {"dtype": "DT_FLOAT", "tensorShape": {"dim": [{"size": "728"}]}}}, "dtype": {"type": "DT_FLOAT"}}}, {"name": "StatefulPartitionedCall/model/block13_sepconv2/separable_conv2d/ReadVariableOp_1", "op": "Const", "attr": {"value": {"tensor": {"dtype": "DT_FLOAT", "tensorShape": {"dim": [{"size": "1"}, {"size": "1"}, {"size": "728"}, {"size": "1024"}]}}}, "dtype": {"type": "DT_FLOAT"}}}, {"name": "StatefulPartitionedCall/model/block13_sepconv2/separable_conv2d_bn_offset", "op": "Const", "attr": {"value": {"tensor": {"dtype": "DT_FLOAT", "tensorShape": {"dim": [{"size": "1024"}]}}}, "dtype": {"type": "DT_FLOAT"}}}, {"name": "StatefulPartitionedCall/model/add_12/ArithmeticOptimizer/AddOpsRewrite_Leaf_0_add", "op": "Const", "input": ["^input_1"], "attr": {"value": {"tensor": {"dtype": "DT_FLOAT", "tensorShape": {"dim": [{"size": "512"}]}}}, "dtype": {"type": "DT_FLOAT"}}}, {"name": "StatefulPartitionedCall/model/add_13/ArithmeticOptimizer/AddOpsRewrite_Leaf_0_add", "op": "Const", "input": ["^input_1"], "attr": {"dtype": {"type": "DT_FLOAT"}, "value": {"tensor": {"dtype": "DT_FLOAT", "tensorShape": {"dim": [{"size": "512"}]}}}}}, {"name": "StatefulPartitionedCall/model/add_14/ArithmeticOptimizer/AddOpsRewrite_Leaf_0_add", "op": "Const", "input": ["^input_1"], "attr": {"dtype": {"type": "DT_FLOAT"}, "value": {"tensor": {"dtype": "DT_FLOAT", "tensorShape": {"dim": [{"size": "256"}]}}}}}, {"name": "StatefulPartitionedCall/model/add_15/ArithmeticOptimizer/AddOpsRewrite_Leaf_0_add", "op": "Const", "input": ["^input_1"], "attr": {"value": {"tensor": {"dtype": "DT_FLOAT", "tensorShape": {"dim": [{"size": "256"}]}}}, "dtype": {"type": "DT_FLOAT"}}}, {"name": "StatefulPartitionedCall/model/add_16/ArithmeticOptimizer/AddOpsRewrite_Leaf_0_add", "op": "Const", "input": ["^input_1"], "attr": {"value": {"tensor": {"dtype": "DT_FLOAT", "tensorShape": {"dim": [{"size": "128"}]}}}, "dtype": {"type": "DT_FLOAT"}}}, {"name": "StatefulPartitionedCall/model/add_17/ArithmeticOptimizer/AddOpsRewrite_Leaf_0_add", "op": "Const", "input": ["^input_1"], "attr": {"value": {"tensor": {"dtype": "DT_FLOAT", "tensorShape": {"dim": [{"size": "128"}]}}}, "dtype": {"type": "DT_FLOAT"}}}, {"name": "StatefulPartitionedCall/model/add_18/ArithmeticOptimizer/AddOpsRewrite_Leaf_0_add", "op": "Const", "input": ["^input_1"], "attr": {"value": {"tensor": {"dtype": "DT_FLOAT", "tensorShape": {"dim": [{"size": "64"}]}}}, "dtype": {"type": "DT_FLOAT"}}}, {"name": "StatefulPartitionedCall/model/add_19/ArithmeticOptimizer/AddOpsRewrite_Leaf_0_add", "op": "Const", "input": ["^input_1"], "attr": {"value": {"tensor": {"dtype": "DT_FLOAT", "tensorShape": {"dim": [{"size": "64"}]}}}, "dtype": {"type": "DT_FLOAT"}}}, {"name": "StatefulPartitionedCall/model/add_20/ArithmeticOptimizer/AddOpsRewrite_Leaf_0_add", "op": "Const", "input": ["^input_1"], "attr": {"dtype": {"type": "DT_FLOAT"}, "value": {"tensor": {"dtype": "DT_FLOAT", "tensorShape": {"dim": [{"size": "32"}]}}}}}, {"name": "StatefulPartitionedCall/model/add_21/ArithmeticOptimizer/AddOpsRewrite_Leaf_0_add", "op": "Const", "input": ["^input_1"], "attr": {"value": {"tensor": {"dtype": "DT_FLOAT", "tensorShape": {"dim": [{"size": "32"}]}}}, "dtype": {"type": "DT_FLOAT"}}}, {"name": "StatefulPartitionedCall/model/add_22/ArithmeticOptimizer/AddOpsRewrite_Leaf_0_add", "op": "Const", "input": ["^input_1"], "attr": {"dtype": {"type": "DT_FLOAT"}, "value": {"tensor": {"dtype": "DT_FLOAT", "tensorShape": {"dim": [{"size": "16"}]}}}}}, {"name": "StatefulPartitionedCall/model/add_23/ArithmeticOptimizer/AddOpsRewrite_Leaf_0_add", "op": "Const", "input": ["^input_1"], "attr": {"dtype": {"type": "DT_FLOAT"}, "value": {"tensor": {"dtype": "DT_FLOAT", "tensorShape": {"dim": [{"size": "16"}]}}}}}, {"name": "StatefulPartitionedCall/model/conv2d_transpose_4/stack/3", "op": "Const", "input": ["^input_1"], "attr": {"value": {"tensor": {"dtype": "DT_INT32", "tensorShape": {}}}, "dtype": {"type": "DT_INT32"}}}, {"name": "StatefulPartitionedCall/model/conv2d_transpose_4/conv2d_transpose/ReadVariableOp", "op": "Const", "input": ["^input_1"], "attr": {"dtype": {"type": "DT_FLOAT"}, "value": {"tensor": {"dtype": "DT_FLOAT", "tensorShape": {"dim": [{"size": "3"}, {"size": "3"}, {"size": "16"}, {"size": "32"}]}}}}}, {"name": "StatefulPartitionedCall/model/conv2d_transpose_3/stack/3", "op": "Const", "input": ["^input_1"], "attr": {"value": {"tensor": {"dtype": "DT_INT32", "tensorShape": {}}}, "dtype": {"type": "DT_INT32"}}}, {"name": "StatefulPartitionedCall/model/conv2d_transpose_3/conv2d_transpose/ReadVariableOp", "op": "Const", "input": ["^input_1"], "attr": {"value": {"tensor": {"dtype": "DT_FLOAT", "tensorShape": {"dim": [{"size": "3"}, {"size": "3"}, {"size": "32"}, {"size": "64"}]}}}, "dtype": {"type": "DT_FLOAT"}}}, {"name": "StatefulPartitionedCall/model/conv2d_transpose_2/stack/3", "op": "Const", "input": ["^input_1"], "attr": {"value": {"tensor": {"dtype": "DT_INT32", "tensorShape": {}}}, "dtype": {"type": "DT_INT32"}}}, {"name": "StatefulPartitionedCall/model/conv2d_transpose_2/conv2d_transpose/ReadVariableOp", "op": "Const", "input": ["^input_1"], "attr": {"value": {"tensor": {"dtype": "DT_FLOAT", "tensorShape": {"dim": [{"size": "3"}, {"size": "3"}, {"size": "64"}, {"size": "128"}]}}}, "dtype": {"type": "DT_FLOAT"}}}, {"name": "StatefulPartitionedCall/model/conv2d_transpose_1/stack/3", "op": "Const", "input": ["^input_1"], "attr": {"dtype": {"type": "DT_INT32"}, "value": {"tensor": {"dtype": "DT_INT32", "tensorShape": {}}}}}, {"name": "StatefulPartitionedCall/model/conv2d_transpose_1/conv2d_transpose/ReadVariableOp", "op": "Const", "input": ["^input_1"], "attr": {"dtype": {"type": "DT_FLOAT"}, "value": {"tensor": {"dtype": "DT_FLOAT", "tensorShape": {"dim": [{"size": "3"}, {"size": "3"}, {"size": "128"}, {"size": "256"}]}}}}}, {"name": "StatefulPartitionedCall/model/conv2d_transpose_4/strided_slice/stack", "op": "Const", "input": ["^input_1"], "attr": {"dtype": {"type": "DT_INT32"}, "value": {"tensor": {"dtype": "DT_INT32", "tensorShape": {"dim": [{"size": "1"}]}}}}}, {"name": "StatefulPartitionedCall/model/conv2d_transpose_4/strided_slice_1/stack_1", "op": "Const", "input": ["^input_1"], "attr": {"value": {"tensor": {"dtype": "DT_INT32", "tensorShape": {"dim": [{"size": "1"}]}}}, "dtype": {"type": "DT_INT32"}}}, {"name": "StatefulPartitionedCall/model/conv2d_transpose_4/strided_slice_2/stack_1", "op": "Const", "input": ["^input_1"], "attr": {"value": {"tensor": {"dtype": "DT_INT32", "tensorShape": {"dim": [{"size": "1"}]}}}, "dtype": {"type": "DT_INT32"}}}, {"name": "StatefulPartitionedCall/model/conv2d_transpose_4/strided_slice/stack_1", "op": "Const", "input": ["^input_1"], "attr": {"value": {"tensor": {"dtype": "DT_INT32", "tensorShape": {"dim": [{"size": "1"}]}}}, "dtype": {"type": "DT_INT32"}}}, {"name": "StatefulPartitionedCall/model/conv2d_transpose_4/mul/y", "op": "Const", "input": ["^input_1"], "attr": {"dtype": {"type": "DT_INT32"}, "value": {"tensor": {"dtype": "DT_INT32", "tensorShape": {}}}}}, {"name": "StatefulPartitionedCall/model/conv2d_transpose/stack/3", "op": "Const", "input": ["^input_1"], "attr": {"value": {"tensor": {"dtype": "DT_INT32", "tensorShape": {}}}, "dtype": {"type": "DT_INT32"}}}, {"name": "StatefulPartitionedCall/model/conv2d_transpose/conv2d_transpose/ReadVariableOp", "op": "Const", "input": ["^input_1"], "attr": {"dtype": {"type": "DT_FLOAT"}, "value": {"tensor": {"dtype": "DT_FLOAT", "tensorShape": {"dim": [{"size": "3"}, {"size": "3"}, {"size": "256"}, {"size": "512"}]}}}}}, {"name": "StatefulPartitionedCall/model/conv2d_7/Conv2D/ReadVariableOp", "op": "Const", "input": ["^input_1"], "attr": {"dtype": {"type": "DT_FLOAT"}, "value": {"tensor": {"dtype": "DT_FLOAT", "tensorShape": {"dim": [{"size": "3"}, {"size": "3"}, {"size": "512"}, {"size": "512"}]}}}}}, {"name": "StatefulPartitionedCall/model/conv2d_7/BiasAdd/ReadVariableOp", "op": "Const", "input": ["^input_1"], "attr": {"dtype": {"type": "DT_FLOAT"}, "value": {"tensor": {"dtype": "DT_FLOAT", "tensorShape": {"dim": [{"size": "512"}]}}}}}, {"name": "StatefulPartitionedCall/model/conv2d_8/Conv2D/ReadVariableOp", "op": "Const", "input": ["^input_1"], "attr": {"dtype": {"type": "DT_FLOAT"}, "value": {"tensor": {"dtype": "DT_FLOAT", "tensorShape": {"dim": [{"size": "3"}, {"size": "3"}, {"size": "512"}, {"size": "512"}]}}}}}, {"name": "StatefulPartitionedCall/model/conv2d_8/BiasAdd/ReadVariableOp", "op": "Const", "input": ["^input_1"], "attr": {"dtype": {"type": "DT_FLOAT"}, "value": {"tensor": {"dtype": "DT_FLOAT", "tensorShape": {"dim": [{"size": "512"}]}}}}}, {"name": "StatefulPartitionedCall/model/conv2d_4/Conv2D/ReadVariableOp", "op": "Const", "input": ["^input_1"], "attr": {"dtype": {"type": "DT_FLOAT"}, "value": {"tensor": {"dtype": "DT_FLOAT", "tensorShape": {"dim": [{"size": "3"}, {"size": "3"}, {"size": "1024"}, {"size": "512"}]}}}}}, {"name": "StatefulPartitionedCall/model/conv2d_4/BiasAdd/ReadVariableOp", "op": "Const", "input": ["^input_1"], "attr": {"value": {"tensor": {"dtype": "DT_FLOAT", "tensorShape": {"dim": [{"size": "512"}]}}}, "dtype": {"type": "DT_FLOAT"}}}, {"name": "StatefulPartitionedCall/model/conv2d_5/Conv2D/ReadVariableOp", "op": "Const", "input": ["^input_1"], "attr": {"value": {"tensor": {"dtype": "DT_FLOAT", "tensorShape": {"dim": [{"size": "3"}, {"size": "3"}, {"size": "512"}, {"size": "512"}]}}}, "dtype": {"type": "DT_FLOAT"}}}, {"name": "StatefulPartitionedCall/model/conv2d_5/BiasAdd/ReadVariableOp", "op": "Const", "input": ["^input_1"], "attr": {"dtype": {"type": "DT_FLOAT"}, "value": {"tensor": {"dtype": "DT_FLOAT", "tensorShape": {"dim": [{"size": "512"}]}}}}}, {"name": "StatefulPartitionedCall/model/conv2d_6/Conv2D/ReadVariableOp", "op": "Const", "input": ["^input_1"], "attr": {"dtype": {"type": "DT_FLOAT"}, "value": {"tensor": {"dtype": "DT_FLOAT", "tensorShape": {"dim": [{"size": "3"}, {"size": "3"}, {"size": "512"}, {"size": "512"}]}}}}}, {"name": "StatefulPartitionedCall/model/conv2d_6/BiasAdd/ReadVariableOp", "op": "Const", "input": ["^input_1"], "attr": {"dtype": {"type": "DT_FLOAT"}, "value": {"tensor": {"dtype": "DT_FLOAT", "tensorShape": {"dim": [{"size": "512"}]}}}}}, {"name": "StatefulPartitionedCall/model/conv2d_transpose/BiasAdd/ReadVariableOp", "op": "Const", "input": ["^input_1"], "attr": {"value": {"tensor": {"dtype": "DT_FLOAT", "tensorShape": {"dim": [{"size": "256"}]}}}, "dtype": {"type": "DT_FLOAT"}}}, {"name": "StatefulPartitionedCall/model/block5_sepconv1/separable_conv2d/ReadVariableOp", "op": "Const", "input": ["^input_1"], "attr": {"dtype": {"type": "DT_FLOAT"}, "value": {"tensor": {"dtype": "DT_FLOAT", "tensorShape": {"dim": [{"size": "3"}, {"size": "3"}, {"size": "728"}, {"size": "1"}]}}}}}, {"name": "StatefulPartitionedCall/model/block5_sepconv2/separable_conv2d/ReadVariableOp", "op": "Const", "input": ["^input_1"], "attr": {"value": {"tensor": {"dtype": "DT_FLOAT", "tensorShape": {"dim": [{"size": "3"}, {"size": "3"}, {"size": "728"}, {"size": "1"}]}}}, "dtype": {"type": "DT_FLOAT"}}}, {"name": "StatefulPartitionedCall/model/block5_sepconv3/separable_conv2d/ReadVariableOp", "op": "Const", "input": ["^input_1"], "attr": {"value": {"tensor": {"dtype": "DT_FLOAT", "tensorShape": {"dim": [{"size": "3"}, {"size": "3"}, {"size": "728"}, {"size": "1"}]}}}, "dtype": {"type": "DT_FLOAT"}}}, {"name": "StatefulPartitionedCall/model/block6_sepconv1/separable_conv2d/ReadVariableOp", "op": "Const", "input": ["^input_1"], "attr": {"dtype": {"type": "DT_FLOAT"}, "value": {"tensor": {"dtype": "DT_FLOAT", "tensorShape": {"dim": [{"size": "3"}, {"size": "3"}, {"size": "728"}, {"size": "1"}]}}}}}, {"name": "StatefulPartitionedCall/model/block6_sepconv2/separable_conv2d/ReadVariableOp", "op": "Const", "input": ["^input_1"], "attr": {"dtype": {"type": "DT_FLOAT"}, "value": {"tensor": {"dtype": "DT_FLOAT", "tensorShape": {"dim": [{"size": "3"}, {"size": "3"}, {"size": "728"}, {"size": "1"}]}}}}}, {"name": "StatefulPartitionedCall/model/block6_sepconv3/separable_conv2d/ReadVariableOp", "op": "Const", "input": ["^input_1"], "attr": {"dtype": {"type": "DT_FLOAT"}, "value": {"tensor": {"dtype": "DT_FLOAT", "tensorShape": {"dim": [{"size": "3"}, {"size": "3"}, {"size": "728"}, {"size": "1"}]}}}}}, {"name": "StatefulPartitionedCall/model/block7_sepconv1/separable_conv2d/ReadVariableOp", "op": "Const", "input": ["^input_1"], "attr": {"dtype": {"type": "DT_FLOAT"}, "value": {"tensor": {"dtype": "DT_FLOAT", "tensorShape": {"dim": [{"size": "3"}, {"size": "3"}, {"size": "728"}, {"size": "1"}]}}}}}, {"name": "StatefulPartitionedCall/model/block7_sepconv2/separable_conv2d/ReadVariableOp", "op": "Const", "input": ["^input_1"], "attr": {"value": {"tensor": {"dtype": "DT_FLOAT", "tensorShape": {"dim": [{"size": "3"}, {"size": "3"}, {"size": "728"}, {"size": "1"}]}}}, "dtype": {"type": "DT_FLOAT"}}}, {"name": "StatefulPartitionedCall/model/block7_sepconv3/separable_conv2d/ReadVariableOp", "op": "Const", "input": ["^input_1"], "attr": {"dtype": {"type": "DT_FLOAT"}, "value": {"tensor": {"dtype": "DT_FLOAT", "tensorShape": {"dim": [{"size": "3"}, {"size": "3"}, {"size": "728"}, {"size": "1"}]}}}}}, {"name": "StatefulPartitionedCall/model/block8_sepconv1/separable_conv2d/ReadVariableOp", "op": "Const", "input": ["^input_1"], "attr": {"value": {"tensor": {"dtype": "DT_FLOAT", "tensorShape": {"dim": [{"size": "3"}, {"size": "3"}, {"size": "728"}, {"size": "1"}]}}}, "dtype": {"type": "DT_FLOAT"}}}, {"name": "StatefulPartitionedCall/model/block8_sepconv2/separable_conv2d/ReadVariableOp", "op": "Const", "input": ["^input_1"], "attr": {"dtype": {"type": "DT_FLOAT"}, "value": {"tensor": {"dtype": "DT_FLOAT", "tensorShape": {"dim": [{"size": "3"}, {"size": "3"}, {"size": "728"}, {"size": "1"}]}}}}}, {"name": "StatefulPartitionedCall/model/block8_sepconv3/separable_conv2d/ReadVariableOp", "op": "Const", "input": ["^input_1"], "attr": {"value": {"tensor": {"dtype": "DT_FLOAT", "tensorShape": {"dim": [{"size": "3"}, {"size": "3"}, {"size": "728"}, {"size": "1"}]}}}, "dtype": {"type": "DT_FLOAT"}}}, {"name": "StatefulPartitionedCall/model/block9_sepconv1/separable_conv2d/ReadVariableOp", "op": "Const", "input": ["^input_1"], "attr": {"value": {"tensor": {"dtype": "DT_FLOAT", "tensorShape": {"dim": [{"size": "3"}, {"size": "3"}, {"size": "728"}, {"size": "1"}]}}}, "dtype": {"type": "DT_FLOAT"}}}, {"name": "StatefulPartitionedCall/model/block9_sepconv2/separable_conv2d/ReadVariableOp", "op": "Const", "input": ["^input_1"], "attr": {"value": {"tensor": {"dtype": "DT_FLOAT", "tensorShape": {"dim": [{"size": "3"}, {"size": "3"}, {"size": "728"}, {"size": "1"}]}}}, "dtype": {"type": "DT_FLOAT"}}}, {"name": "StatefulPartitionedCall/model/block9_sepconv3/separable_conv2d/ReadVariableOp", "op": "Const", "input": ["^input_1"], "attr": {"dtype": {"type": "DT_FLOAT"}, "value": {"tensor": {"dtype": "DT_FLOAT", "tensorShape": {"dim": [{"size": "3"}, {"size": "3"}, {"size": "728"}, {"size": "1"}]}}}}}, {"name": "StatefulPartitionedCall/model/block10_sepconv1/separable_conv2d/ReadVariableOp", "op": "Const", "input": ["^input_1"], "attr": {"dtype": {"type": "DT_FLOAT"}, "value": {"tensor": {"dtype": "DT_FLOAT", "tensorShape": {"dim": [{"size": "3"}, {"size": "3"}, {"size": "728"}, {"size": "1"}]}}}}}, {"name": "StatefulPartitionedCall/model/block10_sepconv2/separable_conv2d/ReadVariableOp", "op": "Const", "input": ["^input_1"], "attr": {"value": {"tensor": {"dtype": "DT_FLOAT", "tensorShape": {"dim": [{"size": "3"}, {"size": "3"}, {"size": "728"}, {"size": "1"}]}}}, "dtype": {"type": "DT_FLOAT"}}}, {"name": "StatefulPartitionedCall/model/block10_sepconv3/separable_conv2d/ReadVariableOp", "op": "Const", "input": ["^input_1"], "attr": {"value": {"tensor": {"dtype": "DT_FLOAT", "tensorShape": {"dim": [{"size": "3"}, {"size": "3"}, {"size": "728"}, {"size": "1"}]}}}, "dtype": {"type": "DT_FLOAT"}}}, {"name": "StatefulPartitionedCall/model/block11_sepconv1/separable_conv2d/ReadVariableOp", "op": "Const", "input": ["^input_1"], "attr": {"dtype": {"type": "DT_FLOAT"}, "value": {"tensor": {"dtype": "DT_FLOAT", "tensorShape": {"dim": [{"size": "3"}, {"size": "3"}, {"size": "728"}, {"size": "1"}]}}}}}, {"name": "StatefulPartitionedCall/model/block11_sepconv2/separable_conv2d/ReadVariableOp", "op": "Const", "input": ["^input_1"], "attr": {"value": {"tensor": {"dtype": "DT_FLOAT", "tensorShape": {"dim": [{"size": "3"}, {"size": "3"}, {"size": "728"}, {"size": "1"}]}}}, "dtype": {"type": "DT_FLOAT"}}}, {"name": "StatefulPartitionedCall/model/block11_sepconv3/separable_conv2d/ReadVariableOp", "op": "Const", "input": ["^input_1"], "attr": {"dtype": {"type": "DT_FLOAT"}, "value": {"tensor": {"dtype": "DT_FLOAT", "tensorShape": {"dim": [{"size": "3"}, {"size": "3"}, {"size": "728"}, {"size": "1"}]}}}}}, {"name": "StatefulPartitionedCall/model/block12_sepconv1/separable_conv2d/ReadVariableOp", "op": "Const", "input": ["^input_1"], "attr": {"dtype": {"type": "DT_FLOAT"}, "value": {"tensor": {"dtype": "DT_FLOAT", "tensorShape": {"dim": [{"size": "3"}, {"size": "3"}, {"size": "728"}, {"size": "1"}]}}}}}, {"name": "StatefulPartitionedCall/model/block12_sepconv2/separable_conv2d/ReadVariableOp", "op": "Const", "input": ["^input_1"], "attr": {"dtype": {"type": "DT_FLOAT"}, "value": {"tensor": {"dtype": "DT_FLOAT", "tensorShape": {"dim": [{"size": "3"}, {"size": "3"}, {"size": "728"}, {"size": "1"}]}}}}}, {"name": "StatefulPartitionedCall/model/block12_sepconv3/separable_conv2d/ReadVariableOp", "op": "Const", "input": ["^input_1"], "attr": {"dtype": {"type": "DT_FLOAT"}, "value": {"tensor": {"dtype": "DT_FLOAT", "tensorShape": {"dim": [{"size": "3"}, {"size": "3"}, {"size": "728"}, {"size": "1"}]}}}}}, {"name": "StatefulPartitionedCall/model/block13_sepconv1/separable_conv2d/ReadVariableOp", "op": "Const", "input": ["^input_1"], "attr": {"value": {"tensor": {"dtype": "DT_FLOAT", "tensorShape": {"dim": [{"size": "3"}, {"size": "3"}, {"size": "728"}, {"size": "1"}]}}}, "dtype": {"type": "DT_FLOAT"}}}, {"name": "StatefulPartitionedCall/model/block13_sepconv2/separable_conv2d/ReadVariableOp", "op": "Const", "input": ["^input_1"], "attr": {"dtype": {"type": "DT_FLOAT"}, "value": {"tensor": {"dtype": "DT_FLOAT", "tensorShape": {"dim": [{"size": "3"}, {"size": "3"}, {"size": "728"}, {"size": "1"}]}}}}}, {"name": "StatefulPartitionedCall/model/conv2d_9/Conv2D/ReadVariableOp", "op": "Const", "input": ["^input_1"], "attr": {"dtype": {"type": "DT_FLOAT"}, "value": {"tensor": {"dtype": "DT_FLOAT", "tensorShape": {"dim": [{"size": "3"}, {"size": "3"}, {"size": "1280"}, {"size": "256"}]}}}}}, {"name": "StatefulPartitionedCall/model/conv2d_9/BiasAdd/ReadVariableOp", "op": "Const", "input": ["^input_1"], "attr": {"dtype": {"type": "DT_FLOAT"}, "value": {"tensor": {"dtype": "DT_FLOAT", "tensorShape": {"dim": [{"size": "256"}]}}}}}, {"name": "StatefulPartitionedCall/model/conv2d_10/Conv2D/ReadVariableOp", "op": "Const", "input": ["^input_1"], "attr": {"value": {"tensor": {"dtype": "DT_FLOAT", "tensorShape": {"dim": [{"size": "3"}, {"size": "3"}, {"size": "256"}, {"size": "256"}]}}}, "dtype": {"type": "DT_FLOAT"}}}, {"name": "StatefulPartitionedCall/model/conv2d_10/BiasAdd/ReadVariableOp", "op": "Const", "input": ["^input_1"], "attr": {"value": {"tensor": {"dtype": "DT_FLOAT", "tensorShape": {"dim": [{"size": "256"}]}}}, "dtype": {"type": "DT_FLOAT"}}}, {"name": "StatefulPartitionedCall/model/conv2d_11/Conv2D/ReadVariableOp", "op": "Const", "input": ["^input_1"], "attr": {"value": {"tensor": {"dtype": "DT_FLOAT", "tensorShape": {"dim": [{"size": "3"}, {"size": "3"}, {"size": "256"}, {"size": "256"}]}}}, "dtype": {"type": "DT_FLOAT"}}}, {"name": "StatefulPartitionedCall/model/conv2d_11/BiasAdd/ReadVariableOp", "op": "Const", "input": ["^input_1"], "attr": {"dtype": {"type": "DT_FLOAT"}, "value": {"tensor": {"dtype": "DT_FLOAT", "tensorShape": {"dim": [{"size": "256"}]}}}}}, {"name": "StatefulPartitionedCall/model/conv2d_12/Conv2D/ReadVariableOp", "op": "Const", "input": ["^input_1"], "attr": {"dtype": {"type": "DT_FLOAT"}, "value": {"tensor": {"dtype": "DT_FLOAT", "tensorShape": {"dim": [{"size": "3"}, {"size": "3"}, {"size": "256"}, {"size": "256"}]}}}}}, {"name": "StatefulPartitionedCall/model/conv2d_12/BiasAdd/ReadVariableOp", "op": "Const", "input": ["^input_1"], "attr": {"dtype": {"type": "DT_FLOAT"}, "value": {"tensor": {"dtype": "DT_FLOAT", "tensorShape": {"dim": [{"size": "256"}]}}}}}, {"name": "StatefulPartitionedCall/model/conv2d_13/Conv2D/ReadVariableOp", "op": "Const", "input": ["^input_1"], "attr": {"value": {"tensor": {"dtype": "DT_FLOAT", "tensorShape": {"dim": [{"size": "3"}, {"size": "3"}, {"size": "256"}, {"size": "256"}]}}}, "dtype": {"type": "DT_FLOAT"}}}, {"name": "StatefulPartitionedCall/model/conv2d_13/BiasAdd/ReadVariableOp", "op": "Const", "input": ["^input_1"], "attr": {"dtype": {"type": "DT_FLOAT"}, "value": {"tensor": {"dtype": "DT_FLOAT", "tensorShape": {"dim": [{"size": "256"}]}}}}}, {"name": "StatefulPartitionedCall/model/conv2d_transpose_1/BiasAdd/ReadVariableOp", "op": "Const", "input": ["^input_1"], "attr": {"dtype": {"type": "DT_FLOAT"}, "value": {"tensor": {"dtype": "DT_FLOAT", "tensorShape": {"dim": [{"size": "128"}]}}}}}, {"name": "StatefulPartitionedCall/model/block4_sepconv1/separable_conv2d/ReadVariableOp", "op": "Const", "input": ["^input_1"], "attr": {"value": {"tensor": {"dtype": "DT_FLOAT", "tensorShape": {"dim": [{"size": "3"}, {"size": "3"}, {"size": "256"}, {"size": "1"}]}}}, "dtype": {"type": "DT_FLOAT"}}}, {"name": "StatefulPartitionedCall/model/block4_sepconv2/separable_conv2d/ReadVariableOp", "op": "Const", "input": ["^input_1"], "attr": {"dtype": {"type": "DT_FLOAT"}, "value": {"tensor": {"dtype": "DT_FLOAT", "tensorShape": {"dim": [{"size": "3"}, {"size": "3"}, {"size": "728"}, {"size": "1"}]}}}}}, {"name": "StatefulPartitionedCall/model/conv2d_14/Conv2D/ReadVariableOp", "op": "Const", "input": ["^input_1"], "attr": {"value": {"tensor": {"dtype": "DT_FLOAT", "tensorShape": {"dim": [{"size": "3"}, {"size": "3"}, {"size": "856"}, {"size": "128"}]}}}, "dtype": {"type": "DT_FLOAT"}}}, {"name": "StatefulPartitionedCall/model/conv2d_14/BiasAdd/ReadVariableOp", "op": "Const", "input": ["^input_1"], "attr": {"dtype": {"type": "DT_FLOAT"}, "value": {"tensor": {"dtype": "DT_FLOAT", "tensorShape": {"dim": [{"size": "128"}]}}}}}, {"name": "StatefulPartitionedCall/model/conv2d_15/Conv2D/ReadVariableOp", "op": "Const", "input": ["^input_1"], "attr": {"value": {"tensor": {"dtype": "DT_FLOAT", "tensorShape": {"dim": [{"size": "3"}, {"size": "3"}, {"size": "128"}, {"size": "128"}]}}}, "dtype": {"type": "DT_FLOAT"}}}, {"name": "StatefulPartitionedCall/model/conv2d_15/BiasAdd/ReadVariableOp", "op": "Const", "input": ["^input_1"], "attr": {"dtype": {"type": "DT_FLOAT"}, "value": {"tensor": {"dtype": "DT_FLOAT", "tensorShape": {"dim": [{"size": "128"}]}}}}}, {"name": "StatefulPartitionedCall/model/conv2d_16/Conv2D/ReadVariableOp", "op": "Const", "input": ["^input_1"], "attr": {"dtype": {"type": "DT_FLOAT"}, "value": {"tensor": {"dtype": "DT_FLOAT", "tensorShape": {"dim": [{"size": "3"}, {"size": "3"}, {"size": "128"}, {"size": "128"}]}}}}}, {"name": "StatefulPartitionedCall/model/conv2d_16/BiasAdd/ReadVariableOp", "op": "Const", "input": ["^input_1"], "attr": {"value": {"tensor": {"dtype": "DT_FLOAT", "tensorShape": {"dim": [{"size": "128"}]}}}, "dtype": {"type": "DT_FLOAT"}}}, {"name": "StatefulPartitionedCall/model/conv2d_17/Conv2D/ReadVariableOp", "op": "Const", "input": ["^input_1"], "attr": {"value": {"tensor": {"dtype": "DT_FLOAT", "tensorShape": {"dim": [{"size": "3"}, {"size": "3"}, {"size": "128"}, {"size": "128"}]}}}, "dtype": {"type": "DT_FLOAT"}}}, {"name": "StatefulPartitionedCall/model/conv2d_17/BiasAdd/ReadVariableOp", "op": "Const", "input": ["^input_1"], "attr": {"dtype": {"type": "DT_FLOAT"}, "value": {"tensor": {"dtype": "DT_FLOAT", "tensorShape": {"dim": [{"size": "128"}]}}}}}, {"name": "StatefulPartitionedCall/model/conv2d_18/Conv2D/ReadVariableOp", "op": "Const", "input": ["^input_1"], "attr": {"dtype": {"type": "DT_FLOAT"}, "value": {"tensor": {"dtype": "DT_FLOAT", "tensorShape": {"dim": [{"size": "3"}, {"size": "3"}, {"size": "128"}, {"size": "128"}]}}}}}, {"name": "StatefulPartitionedCall/model/conv2d_18/BiasAdd/ReadVariableOp", "op": "Const", "input": ["^input_1"], "attr": {"dtype": {"type": "DT_FLOAT"}, "value": {"tensor": {"dtype": "DT_FLOAT", "tensorShape": {"dim": [{"size": "128"}]}}}}}, {"name": "StatefulPartitionedCall/model/conv2d_transpose_2/BiasAdd/ReadVariableOp", "op": "Const", "input": ["^input_1"], "attr": {"dtype": {"type": "DT_FLOAT"}, "value": {"tensor": {"dtype": "DT_FLOAT", "tensorShape": {"dim": [{"size": "64"}]}}}}}, {"name": "StatefulPartitionedCall/model/block3_sepconv1/separable_conv2d/ReadVariableOp", "op": "Const", "input": ["^input_1"], "attr": {"value": {"tensor": {"dtype": "DT_FLOAT", "tensorShape": {"dim": [{"size": "3"}, {"size": "3"}, {"size": "128"}, {"size": "1"}]}}}, "dtype": {"type": "DT_FLOAT"}}}, {"name": "StatefulPartitionedCall/model/block3_sepconv2/separable_conv2d/ReadVariableOp", "op": "Const", "input": ["^input_1"], "attr": {"value": {"tensor": {"dtype": "DT_FLOAT", "tensorShape": {"dim": [{"size": "3"}, {"size": "3"}, {"size": "256"}, {"size": "1"}]}}}, "dtype": {"type": "DT_FLOAT"}}}, {"name": "StatefulPartitionedCall/model/zero_padding2d/Pad/paddings", "op": "Const", "input": ["^input_1"], "attr": {"dtype": {"type": "DT_INT32"}, "value": {"tensor": {"dtype": "DT_INT32", "tensorShape": {"dim": [{"size": "4"}, {"size": "2"}]}}}}}, {"name": "StatefulPartitionedCall/model/conv2d_19/Conv2D/ReadVariableOp", "op": "Const", "input": ["^input_1"], "attr": {"value": {"tensor": {"dtype": "DT_FLOAT", "tensorShape": {"dim": [{"size": "3"}, {"size": "3"}, {"size": "320"}, {"size": "64"}]}}}, "dtype": {"type": "DT_FLOAT"}}}, {"name": "StatefulPartitionedCall/model/conv2d_19/BiasAdd/ReadVariableOp", "op": "Const", "input": ["^input_1"], "attr": {"dtype": {"type": "DT_FLOAT"}, "value": {"tensor": {"dtype": "DT_FLOAT", "tensorShape": {"dim": [{"size": "64"}]}}}}}, {"name": "StatefulPartitionedCall/model/conv2d_20/Conv2D/ReadVariableOp", "op": "Const", "input": ["^input_1"], "attr": {"dtype": {"type": "DT_FLOAT"}, "value": {"tensor": {"dtype": "DT_FLOAT", "tensorShape": {"dim": [{"size": "3"}, {"size": "3"}, {"size": "64"}, {"size": "64"}]}}}}}, {"name": "StatefulPartitionedCall/model/conv2d_20/BiasAdd/ReadVariableOp", "op": "Const", "input": ["^input_1"], "attr": {"value": {"tensor": {"dtype": "DT_FLOAT", "tensorShape": {"dim": [{"size": "64"}]}}}, "dtype": {"type": "DT_FLOAT"}}}, {"name": "StatefulPartitionedCall/model/conv2d_21/Conv2D/ReadVariableOp", "op": "Const", "input": ["^input_1"], "attr": {"dtype": {"type": "DT_FLOAT"}, "value": {"tensor": {"dtype": "DT_FLOAT", "tensorShape": {"dim": [{"size": "3"}, {"size": "3"}, {"size": "64"}, {"size": "64"}]}}}}}, {"name": "StatefulPartitionedCall/model/conv2d_21/BiasAdd/ReadVariableOp", "op": "Const", "input": ["^input_1"], "attr": {"dtype": {"type": "DT_FLOAT"}, "value": {"tensor": {"dtype": "DT_FLOAT", "tensorShape": {"dim": [{"size": "64"}]}}}}}, {"name": "StatefulPartitionedCall/model/conv2d_22/Conv2D/ReadVariableOp", "op": "Const", "input": ["^input_1"], "attr": {"value": {"tensor": {"dtype": "DT_FLOAT", "tensorShape": {"dim": [{"size": "3"}, {"size": "3"}, {"size": "64"}, {"size": "64"}]}}}, "dtype": {"type": "DT_FLOAT"}}}, {"name": "StatefulPartitionedCall/model/conv2d_22/BiasAdd/ReadVariableOp", "op": "Const", "input": ["^input_1"], "attr": {"value": {"tensor": {"dtype": "DT_FLOAT", "tensorShape": {"dim": [{"size": "64"}]}}}, "dtype": {"type": "DT_FLOAT"}}}, {"name": "StatefulPartitionedCall/model/conv2d_23/Conv2D/ReadVariableOp", "op": "Const", "input": ["^input_1"], "attr": {"value": {"tensor": {"dtype": "DT_FLOAT", "tensorShape": {"dim": [{"size": "3"}, {"size": "3"}, {"size": "64"}, {"size": "64"}]}}}, "dtype": {"type": "DT_FLOAT"}}}, {"name": "StatefulPartitionedCall/model/conv2d_23/BiasAdd/ReadVariableOp", "op": "Const", "input": ["^input_1"], "attr": {"dtype": {"type": "DT_FLOAT"}, "value": {"tensor": {"dtype": "DT_FLOAT", "tensorShape": {"dim": [{"size": "64"}]}}}}}, {"name": "StatefulPartitionedCall/model/conv2d_transpose_3/BiasAdd/ReadVariableOp", "op": "Const", "input": ["^input_1"], "attr": {"dtype": {"type": "DT_FLOAT"}, "value": {"tensor": {"dtype": "DT_FLOAT", "tensorShape": {"dim": [{"size": "32"}]}}}}}, {"name": "StatefulPartitionedCall/model/block2_sepconv1/separable_conv2d/ReadVariableOp", "op": "Const", "input": ["^input_1"], "attr": {"value": {"tensor": {"dtype": "DT_FLOAT", "tensorShape": {"dim": [{"size": "3"}, {"size": "3"}, {"size": "64"}, {"size": "1"}]}}}, "dtype": {"type": "DT_FLOAT"}}}, {"name": "StatefulPartitionedCall/model/block2_sepconv2/separable_conv2d/ReadVariableOp", "op": "Const", "input": ["^input_1"], "attr": {"value": {"tensor": {"dtype": "DT_FLOAT", "tensorShape": {"dim": [{"size": "3"}, {"size": "3"}, {"size": "128"}, {"size": "1"}]}}}, "dtype": {"type": "DT_FLOAT"}}}, {"name": "StatefulPartitionedCall/model/zero_padding2d_1/Pad/paddings", "op": "Const", "input": ["^input_1"], "attr": {"dtype": {"type": "DT_INT32"}, "value": {"tensor": {"dtype": "DT_INT32", "tensorShape": {"dim": [{"size": "4"}, {"size": "2"}]}}}}}, {"name": "StatefulPartitionedCall/model/concatenate/concat/axis", "op": "Const", "input": ["^input_1"], "attr": {"dtype": {"type": "DT_INT32"}, "value": {"tensor": {"dtype": "DT_INT32", "tensorShape": {}}}}}, {"name": "StatefulPartitionedCall/model/conv2d_24/Conv2D/ReadVariableOp", "op": "Const", "input": ["^input_1"], "attr": {"dtype": {"type": "DT_FLOAT"}, "value": {"tensor": {"dtype": "DT_FLOAT", "tensorShape": {"dim": [{"size": "3"}, {"size": "3"}, {"size": "160"}, {"size": "32"}]}}}}}, {"name": "StatefulPartitionedCall/model/conv2d_24/BiasAdd/ReadVariableOp", "op": "Const", "input": ["^input_1"], "attr": {"dtype": {"type": "DT_FLOAT"}, "value": {"tensor": {"dtype": "DT_FLOAT", "tensorShape": {"dim": [{"size": "32"}]}}}}}, {"name": "StatefulPartitionedCall/model/conv2d_25/Conv2D/ReadVariableOp", "op": "Const", "input": ["^input_1"], "attr": {"dtype": {"type": "DT_FLOAT"}, "value": {"tensor": {"dtype": "DT_FLOAT", "tensorShape": {"dim": [{"size": "3"}, {"size": "3"}, {"size": "32"}, {"size": "32"}]}}}}}, {"name": "StatefulPartitionedCall/model/conv2d_25/BiasAdd/ReadVariableOp", "op": "Const", "input": ["^input_1"], "attr": {"value": {"tensor": {"dtype": "DT_FLOAT", "tensorShape": {"dim": [{"size": "32"}]}}}, "dtype": {"type": "DT_FLOAT"}}}, {"name": "StatefulPartitionedCall/model/conv2d_26/Conv2D/ReadVariableOp", "op": "Const", "input": ["^input_1"], "attr": {"dtype": {"type": "DT_FLOAT"}, "value": {"tensor": {"dtype": "DT_FLOAT", "tensorShape": {"dim": [{"size": "3"}, {"size": "3"}, {"size": "32"}, {"size": "32"}]}}}}}, {"name": "StatefulPartitionedCall/model/conv2d_26/BiasAdd/ReadVariableOp", "op": "Const", "input": ["^input_1"], "attr": {"dtype": {"type": "DT_FLOAT"}, "value": {"tensor": {"dtype": "DT_FLOAT", "tensorShape": {"dim": [{"size": "32"}]}}}}}, {"name": "StatefulPartitionedCall/model/conv2d_27/Conv2D/ReadVariableOp", "op": "Const", "input": ["^input_1"], "attr": {"dtype": {"type": "DT_FLOAT"}, "value": {"tensor": {"dtype": "DT_FLOAT", "tensorShape": {"dim": [{"size": "3"}, {"size": "3"}, {"size": "32"}, {"size": "32"}]}}}}}, {"name": "StatefulPartitionedCall/model/conv2d_27/BiasAdd/ReadVariableOp", "op": "Const", "input": ["^input_1"], "attr": {"value": {"tensor": {"dtype": "DT_FLOAT", "tensorShape": {"dim": [{"size": "32"}]}}}, "dtype": {"type": "DT_FLOAT"}}}, {"name": "StatefulPartitionedCall/model/conv2d_28/Conv2D/ReadVariableOp", "op": "Const", "input": ["^input_1"], "attr": {"value": {"tensor": {"dtype": "DT_FLOAT", "tensorShape": {"dim": [{"size": "3"}, {"size": "3"}, {"size": "32"}, {"size": "32"}]}}}, "dtype": {"type": "DT_FLOAT"}}}, {"name": "StatefulPartitionedCall/model/conv2d_28/BiasAdd/ReadVariableOp", "op": "Const", "input": ["^input_1"], "attr": {"value": {"tensor": {"dtype": "DT_FLOAT", "tensorShape": {"dim": [{"size": "32"}]}}}, "dtype": {"type": "DT_FLOAT"}}}, {"name": "StatefulPartitionedCall/model/conv2d_transpose_4/BiasAdd/ReadVariableOp", "op": "Const", "input": ["^input_1"], "attr": {"dtype": {"type": "DT_FLOAT"}, "value": {"tensor": {"dtype": "DT_FLOAT", "tensorShape": {"dim": [{"size": "16"}]}}}}}, {"name": "StatefulPartitionedCall/model/conv2d_29/Conv2D/ReadVariableOp", "op": "Const", "input": ["^input_1"], "attr": {"dtype": {"type": "DT_FLOAT"}, "value": {"tensor": {"dtype": "DT_FLOAT", "tensorShape": {"dim": [{"size": "3"}, {"size": "3"}, {"size": "16"}, {"size": "16"}]}}}}}, {"name": "StatefulPartitionedCall/model/conv2d_29/BiasAdd/ReadVariableOp", "op": "Const", "input": ["^input_1"], "attr": {"dtype": {"type": "DT_FLOAT"}, "value": {"tensor": {"dtype": "DT_FLOAT", "tensorShape": {"dim": [{"size": "16"}]}}}}}, {"name": "StatefulPartitionedCall/model/conv2d_30/Conv2D/ReadVariableOp", "op": "Const", "input": ["^input_1"], "attr": {"value": {"tensor": {"dtype": "DT_FLOAT", "tensorShape": {"dim": [{"size": "3"}, {"size": "3"}, {"size": "16"}, {"size": "16"}]}}}, "dtype": {"type": "DT_FLOAT"}}}, {"name": "StatefulPartitionedCall/model/conv2d_30/BiasAdd/ReadVariableOp", "op": "Const", "input": ["^input_1"], "attr": {"value": {"tensor": {"dtype": "DT_FLOAT", "tensorShape": {"dim": [{"size": "16"}]}}}, "dtype": {"type": "DT_FLOAT"}}}, {"name": "StatefulPartitionedCall/model/conv2d_31/Conv2D/ReadVariableOp", "op": "Const", "input": ["^input_1"], "attr": {"value": {"tensor": {"dtype": "DT_FLOAT", "tensorShape": {"dim": [{"size": "3"}, {"size": "3"}, {"size": "16"}, {"size": "16"}]}}}, "dtype": {"type": "DT_FLOAT"}}}, {"name": "StatefulPartitionedCall/model/conv2d_31/BiasAdd/ReadVariableOp", "op": "Const", "input": ["^input_1"], "attr": {"dtype": {"type": "DT_FLOAT"}, "value": {"tensor": {"dtype": "DT_FLOAT", "tensorShape": {"dim": [{"size": "16"}]}}}}}, {"name": "StatefulPartitionedCall/model/conv2d_32/Conv2D/ReadVariableOp", "op": "Const", "input": ["^input_1"], "attr": {"dtype": {"type": "DT_FLOAT"}, "value": {"tensor": {"dtype": "DT_FLOAT", "tensorShape": {"dim": [{"size": "3"}, {"size": "3"}, {"size": "16"}, {"size": "16"}]}}}}}, {"name": "StatefulPartitionedCall/model/conv2d_32/BiasAdd/ReadVariableOp", "op": "Const", "input": ["^input_1"], "attr": {"value": {"tensor": {"dtype": "DT_FLOAT", "tensorShape": {"dim": [{"size": "16"}]}}}, "dtype": {"type": "DT_FLOAT"}}}, {"name": "StatefulPartitionedCall/model/conv2d_33/Conv2D/ReadVariableOp", "op": "Const", "input": ["^input_1"], "attr": {"value": {"tensor": {"dtype": "DT_FLOAT", "tensorShape": {"dim": [{"size": "3"}, {"size": "3"}, {"size": "16"}, {"size": "16"}]}}}, "dtype": {"type": "DT_FLOAT"}}}, {"name": "StatefulPartitionedCall/model/conv2d_33/BiasAdd/ReadVariableOp", "op": "Const", "input": ["^input_1"], "attr": {"dtype": {"type": "DT_FLOAT"}, "value": {"tensor": {"dtype": "DT_FLOAT", "tensorShape": {"dim": [{"size": "16"}]}}}}}, {"name": "StatefulPartitionedCall/model/conv2d_34/Conv2D/ReadVariableOp", "op": "Const", "input": ["^input_1"], "attr": {"dtype": {"type": "DT_FLOAT"}, "value": {"tensor": {"dtype": "DT_FLOAT", "tensorShape": {"dim": [{"size": "1"}, {"size": "1"}, {"size": "16"}, {"size": "1"}]}}}}}, {"name": "StatefulPartitionedCall/model/conv2d_34/BiasAdd/ReadVariableOp", "op": "Const", "input": ["^input_1"], "attr": {"value": {"tensor": {"dtype": "DT_FLOAT", "tensorShape": {"dim": [{"size": "1"}]}}}, "dtype": {"type": "DT_FLOAT"}}}, {"name": "StatefulPartitionedCall/model/batch_normalization_5/FusedBatchNorm/Scaled", "op": "Const", "input": ["^input_1"], "attr": {"dtype": {"type": "DT_FLOAT"}, "value": {"tensor": {"dtype": "DT_FLOAT", "tensorShape": {"dim": [{"size": "512"}]}}}}}, {"name": "StatefulPartitionedCall/model/batch_normalization_4/FusedBatchNorm/Offset", "op": "Const", "input": ["^input_1"], "attr": {"dtype": {"type": "DT_FLOAT"}, "value": {"tensor": {"dtype": "DT_FLOAT", "tensorShape": {"dim": [{"size": "512"}]}}}}}, {"name": "StatefulPartitionedCall/model/batch_normalization_4/FusedBatchNorm/Scaled", "op": "Const", "input": ["^input_1"], "attr": {"value": {"tensor": {"dtype": "DT_FLOAT", "tensorShape": {"dim": [{"size": "512"}]}}}, "dtype": {"type": "DT_FLOAT"}}}, {"name": "StatefulPartitionedCall/model/batch_normalization_6/FusedBatchNorm/Offset", "op": "Const", "input": ["^input_1"], "attr": {"value": {"tensor": {"dtype": "DT_FLOAT", "tensorShape": {"dim": [{"size": "512"}]}}}, "dtype": {"type": "DT_FLOAT"}}}, {"name": "StatefulPartitionedCall/model/batch_normalization_6/FusedBatchNorm/Scaled", "op": "Const", "input": ["^input_1"], "attr": {"dtype": {"type": "DT_FLOAT"}, "value": {"tensor": {"dtype": "DT_FLOAT", "tensorShape": {"dim": [{"size": "512"}]}}}}}, {"name": "StatefulPartitionedCall/model/batch_normalization_7/FusedBatchNorm/Scaled", "op": "Const", "input": ["^input_1"], "attr": {"value": {"tensor": {"dtype": "DT_FLOAT", "tensorShape": {"dim": [{"size": "512"}]}}}, "dtype": {"type": "DT_FLOAT"}}}, {"name": "StatefulPartitionedCall/model/batch_normalization_9/FusedBatchNorm/Scaled", "op": "Const", "input": ["^input_1"], "attr": {"value": {"tensor": {"dtype": "DT_FLOAT", "tensorShape": {"dim": [{"size": "512"}]}}}, "dtype": {"type": "DT_FLOAT"}}}, {"name": "StatefulPartitionedCall/model/batch_normalization_8/FusedBatchNorm/Offset", "op": "Const", "input": ["^input_1"], "attr": {"dtype": {"type": "DT_FLOAT"}, "value": {"tensor": {"dtype": "DT_FLOAT", "tensorShape": {"dim": [{"size": "512"}]}}}}}, {"name": "StatefulPartitionedCall/model/batch_normalization_8/FusedBatchNorm/Scaled", "op": "Const", "input": ["^input_1"], "attr": {"dtype": {"type": "DT_FLOAT"}, "value": {"tensor": {"dtype": "DT_FLOAT", "tensorShape": {"dim": [{"size": "512"}]}}}}}, {"name": "StatefulPartitionedCall/model/batch_normalization_10/FusedBatchNorm/Offset", "op": "Const", "input": ["^input_1"], "attr": {"value": {"tensor": {"dtype": "DT_FLOAT", "tensorShape": {"dim": [{"size": "512"}]}}}, "dtype": {"type": "DT_FLOAT"}}}, {"name": "StatefulPartitionedCall/model/batch_normalization_10/FusedBatchNorm/Scaled", "op": "Const", "input": ["^input_1"], "attr": {"dtype": {"type": "DT_FLOAT"}, "value": {"tensor": {"dtype": "DT_FLOAT", "tensorShape": {"dim": [{"size": "512"}]}}}}}, {"name": "StatefulPartitionedCall/model/batch_normalization_11/FusedBatchNorm/Scaled", "op": "Const", "input": ["^input_1"], "attr": {"value": {"tensor": {"dtype": "DT_FLOAT", "tensorShape": {"dim": [{"size": "512"}]}}}, "dtype": {"type": "DT_FLOAT"}}}, {"name": "StatefulPartitionedCall/model/batch_normalization_13/FusedBatchNorm/Scaled", "op": "Const", "input": ["^input_1"], "attr": {"value": {"tensor": {"dtype": "DT_FLOAT", "tensorShape": {"dim": [{"size": "256"}]}}}, "dtype": {"type": "DT_FLOAT"}}}, {"name": "StatefulPartitionedCall/model/batch_normalization_12/FusedBatchNorm/Offset", "op": "Const", "input": ["^input_1"], "attr": {"dtype": {"type": "DT_FLOAT"}, "value": {"tensor": {"dtype": "DT_FLOAT", "tensorShape": {"dim": [{"size": "256"}]}}}}}, {"name": "StatefulPartitionedCall/model/batch_normalization_12/FusedBatchNorm/Scaled", "op": "Const", "input": ["^input_1"], "attr": {"dtype": {"type": "DT_FLOAT"}, "value": {"tensor": {"dtype": "DT_FLOAT", "tensorShape": {"dim": [{"size": "256"}]}}}}}, {"name": "StatefulPartitionedCall/model/batch_normalization_14/FusedBatchNorm/Offset", "op": "Const", "input": ["^input_1"], "attr": {"value": {"tensor": {"dtype": "DT_FLOAT", "tensorShape": {"dim": [{"size": "256"}]}}}, "dtype": {"type": "DT_FLOAT"}}}, {"name": "StatefulPartitionedCall/model/batch_normalization_14/FusedBatchNorm/Scaled", "op": "Const", "input": ["^input_1"], "attr": {"value": {"tensor": {"dtype": "DT_FLOAT", "tensorShape": {"dim": [{"size": "256"}]}}}, "dtype": {"type": "DT_FLOAT"}}}, {"name": "StatefulPartitionedCall/model/batch_normalization_15/FusedBatchNorm/Scaled", "op": "Const", "input": ["^input_1"], "attr": {"dtype": {"type": "DT_FLOAT"}, "value": {"tensor": {"dtype": "DT_FLOAT", "tensorShape": {"dim": [{"size": "256"}]}}}}}, {"name": "StatefulPartitionedCall/model/batch_normalization_17/FusedBatchNorm/Scaled", "op": "Const", "input": ["^input_1"], "attr": {"dtype": {"type": "DT_FLOAT"}, "value": {"tensor": {"dtype": "DT_FLOAT", "tensorShape": {"dim": [{"size": "256"}]}}}}}, {"name": "StatefulPartitionedCall/model/batch_normalization_16/FusedBatchNorm/Offset", "op": "Const", "input": ["^input_1"], "attr": {"dtype": {"type": "DT_FLOAT"}, "value": {"tensor": {"dtype": "DT_FLOAT", "tensorShape": {"dim": [{"size": "256"}]}}}}}, {"name": "StatefulPartitionedCall/model/batch_normalization_16/FusedBatchNorm/Scaled", "op": "Const", "input": ["^input_1"], "attr": {"value": {"tensor": {"dtype": "DT_FLOAT", "tensorShape": {"dim": [{"size": "256"}]}}}, "dtype": {"type": "DT_FLOAT"}}}, {"name": "StatefulPartitionedCall/model/batch_normalization_18/FusedBatchNorm/Offset", "op": "Const", "input": ["^input_1"], "attr": {"dtype": {"type": "DT_FLOAT"}, "value": {"tensor": {"dtype": "DT_FLOAT", "tensorShape": {"dim": [{"size": "256"}]}}}}}, {"name": "StatefulPartitionedCall/model/batch_normalization_18/FusedBatchNorm/Scaled", "op": "Const", "input": ["^input_1"], "attr": {"value": {"tensor": {"dtype": "DT_FLOAT", "tensorShape": {"dim": [{"size": "256"}]}}}, "dtype": {"type": "DT_FLOAT"}}}, {"name": "StatefulPartitionedCall/model/batch_normalization_19/FusedBatchNorm/Scaled", "op": "Const", "input": ["^input_1"], "attr": {"dtype": {"type": "DT_FLOAT"}, "value": {"tensor": {"dtype": "DT_FLOAT", "tensorShape": {"dim": [{"size": "256"}]}}}}}, {"name": "StatefulPartitionedCall/model/batch_normalization_21/FusedBatchNorm/Scaled", "op": "Const", "input": ["^input_1"], "attr": {"value": {"tensor": {"dtype": "DT_FLOAT", "tensorShape": {"dim": [{"size": "128"}]}}}, "dtype": {"type": "DT_FLOAT"}}}, {"name": "StatefulPartitionedCall/model/batch_normalization_20/FusedBatchNorm/Offset", "op": "Const", "input": ["^input_1"], "attr": {"value": {"tensor": {"dtype": "DT_FLOAT", "tensorShape": {"dim": [{"size": "128"}]}}}, "dtype": {"type": "DT_FLOAT"}}}, {"name": "StatefulPartitionedCall/model/batch_normalization_20/FusedBatchNorm/Scaled", "op": "Const", "input": ["^input_1"], "attr": {"value": {"tensor": {"dtype": "DT_FLOAT", "tensorShape": {"dim": [{"size": "128"}]}}}, "dtype": {"type": "DT_FLOAT"}}}, {"name": "StatefulPartitionedCall/model/batch_normalization_22/FusedBatchNorm/Offset", "op": "Const", "input": ["^input_1"], "attr": {"value": {"tensor": {"dtype": "DT_FLOAT", "tensorShape": {"dim": [{"size": "128"}]}}}, "dtype": {"type": "DT_FLOAT"}}}, {"name": "StatefulPartitionedCall/model/batch_normalization_22/FusedBatchNorm/Scaled", "op": "Const", "input": ["^input_1"], "attr": {"value": {"tensor": {"dtype": "DT_FLOAT", "tensorShape": {"dim": [{"size": "128"}]}}}, "dtype": {"type": "DT_FLOAT"}}}, {"name": "StatefulPartitionedCall/model/batch_normalization_23/FusedBatchNorm/Scaled", "op": "Const", "input": ["^input_1"], "attr": {"value": {"tensor": {"dtype": "DT_FLOAT", "tensorShape": {"dim": [{"size": "128"}]}}}, "dtype": {"type": "DT_FLOAT"}}}, {"name": "StatefulPartitionedCall/model/batch_normalization_25/FusedBatchNorm/Scaled", "op": "Const", "input": ["^input_1"], "attr": {"value": {"tensor": {"dtype": "DT_FLOAT", "tensorShape": {"dim": [{"size": "128"}]}}}, "dtype": {"type": "DT_FLOAT"}}}, {"name": "StatefulPartitionedCall/model/batch_normalization_24/FusedBatchNorm/Offset", "op": "Const", "input": ["^input_1"], "attr": {"dtype": {"type": "DT_FLOAT"}, "value": {"tensor": {"dtype": "DT_FLOAT", "tensorShape": {"dim": [{"size": "128"}]}}}}}, {"name": "StatefulPartitionedCall/model/batch_normalization_24/FusedBatchNorm/Scaled", "op": "Const", "input": ["^input_1"], "attr": {"dtype": {"type": "DT_FLOAT"}, "value": {"tensor": {"dtype": "DT_FLOAT", "tensorShape": {"dim": [{"size": "128"}]}}}}}, {"name": "StatefulPartitionedCall/model/batch_normalization_26/FusedBatchNorm/Offset", "op": "Const", "input": ["^input_1"], "attr": {"dtype": {"type": "DT_FLOAT"}, "value": {"tensor": {"dtype": "DT_FLOAT", "tensorShape": {"dim": [{"size": "128"}]}}}}}, {"name": "StatefulPartitionedCall/model/batch_normalization_26/FusedBatchNorm/Scaled", "op": "Const", "input": ["^input_1"], "attr": {"value": {"tensor": {"dtype": "DT_FLOAT", "tensorShape": {"dim": [{"size": "128"}]}}}, "dtype": {"type": "DT_FLOAT"}}}, {"name": "StatefulPartitionedCall/model/batch_normalization_27/FusedBatchNorm/Scaled", "op": "Const", "input": ["^input_1"], "attr": {"dtype": {"type": "DT_FLOAT"}, "value": {"tensor": {"dtype": "DT_FLOAT", "tensorShape": {"dim": [{"size": "128"}]}}}}}, {"name": "StatefulPartitionedCall/model/batch_normalization_29/FusedBatchNorm/Scaled", "op": "Const", "input": ["^input_1"], "attr": {"dtype": {"type": "DT_FLOAT"}, "value": {"tensor": {"dtype": "DT_FLOAT", "tensorShape": {"dim": [{"size": "64"}]}}}}}, {"name": "StatefulPartitionedCall/model/batch_normalization_28/FusedBatchNorm/Offset", "op": "Const", "input": ["^input_1"], "attr": {"value": {"tensor": {"dtype": "DT_FLOAT", "tensorShape": {"dim": [{"size": "64"}]}}}, "dtype": {"type": "DT_FLOAT"}}}, {"name": "StatefulPartitionedCall/model/batch_normalization_28/FusedBatchNorm/Scaled", "op": "Const", "input": ["^input_1"], "attr": {"value": {"tensor": {"dtype": "DT_FLOAT", "tensorShape": {"dim": [{"size": "64"}]}}}, "dtype": {"type": "DT_FLOAT"}}}, {"name": "StatefulPartitionedCall/model/batch_normalization_30/FusedBatchNorm/Offset", "op": "Const", "input": ["^input_1"], "attr": {"value": {"tensor": {"dtype": "DT_FLOAT", "tensorShape": {"dim": [{"size": "64"}]}}}, "dtype": {"type": "DT_FLOAT"}}}, {"name": "StatefulPartitionedCall/model/batch_normalization_30/FusedBatchNorm/Scaled", "op": "Const", "input": ["^input_1"], "attr": {"value": {"tensor": {"dtype": "DT_FLOAT", "tensorShape": {"dim": [{"size": "64"}]}}}, "dtype": {"type": "DT_FLOAT"}}}, {"name": "StatefulPartitionedCall/model/batch_normalization_31/FusedBatchNorm/Scaled", "op": "Const", "input": ["^input_1"], "attr": {"dtype": {"type": "DT_FLOAT"}, "value": {"tensor": {"dtype": "DT_FLOAT", "tensorShape": {"dim": [{"size": "64"}]}}}}}, {"name": "StatefulPartitionedCall/model/batch_normalization_33/FusedBatchNorm/Scaled", "op": "Const", "input": ["^input_1"], "attr": {"dtype": {"type": "DT_FLOAT"}, "value": {"tensor": {"dtype": "DT_FLOAT", "tensorShape": {"dim": [{"size": "64"}]}}}}}, {"name": "StatefulPartitionedCall/model/batch_normalization_32/FusedBatchNorm/Offset", "op": "Const", "input": ["^input_1"], "attr": {"value": {"tensor": {"dtype": "DT_FLOAT", "tensorShape": {"dim": [{"size": "64"}]}}}, "dtype": {"type": "DT_FLOAT"}}}, {"name": "StatefulPartitionedCall/model/batch_normalization_32/FusedBatchNorm/Scaled", "op": "Const", "input": ["^input_1"], "attr": {"value": {"tensor": {"dtype": "DT_FLOAT", "tensorShape": {"dim": [{"size": "64"}]}}}, "dtype": {"type": "DT_FLOAT"}}}, {"name": "StatefulPartitionedCall/model/batch_normalization_34/FusedBatchNorm/Offset", "op": "Const", "input": ["^input_1"], "attr": {"dtype": {"type": "DT_FLOAT"}, "value": {"tensor": {"dtype": "DT_FLOAT", "tensorShape": {"dim": [{"size": "64"}]}}}}}, {"name": "StatefulPartitionedCall/model/batch_normalization_34/FusedBatchNorm/Scaled", "op": "Const", "input": ["^input_1"], "attr": {"dtype": {"type": "DT_FLOAT"}, "value": {"tensor": {"dtype": "DT_FLOAT", "tensorShape": {"dim": [{"size": "64"}]}}}}}, {"name": "StatefulPartitionedCall/model/batch_normalization_35/FusedBatchNorm/Scaled", "op": "Const", "input": ["^input_1"], "attr": {"value": {"tensor": {"dtype": "DT_FLOAT", "tensorShape": {"dim": [{"size": "64"}]}}}, "dtype": {"type": "DT_FLOAT"}}}, {"name": "StatefulPartitionedCall/model/batch_normalization_37/FusedBatchNorm/Scaled", "op": "Const", "input": ["^input_1"], "attr": {"dtype": {"type": "DT_FLOAT"}, "value": {"tensor": {"dtype": "DT_FLOAT", "tensorShape": {"dim": [{"size": "32"}]}}}}}, {"name": "StatefulPartitionedCall/model/batch_normalization_36/FusedBatchNorm/Offset", "op": "Const", "input": ["^input_1"], "attr": {"value": {"tensor": {"dtype": "DT_FLOAT", "tensorShape": {"dim": [{"size": "32"}]}}}, "dtype": {"type": "DT_FLOAT"}}}, {"name": "StatefulPartitionedCall/model/batch_normalization_36/FusedBatchNorm/Scaled", "op": "Const", "input": ["^input_1"], "attr": {"value": {"tensor": {"dtype": "DT_FLOAT", "tensorShape": {"dim": [{"size": "32"}]}}}, "dtype": {"type": "DT_FLOAT"}}}, {"name": "StatefulPartitionedCall/model/batch_normalization_38/FusedBatchNorm/Offset", "op": "Const", "input": ["^input_1"], "attr": {"value": {"tensor": {"dtype": "DT_FLOAT", "tensorShape": {"dim": [{"size": "32"}]}}}, "dtype": {"type": "DT_FLOAT"}}}, {"name": "StatefulPartitionedCall/model/batch_normalization_38/FusedBatchNorm/Scaled", "op": "Const", "input": ["^input_1"], "attr": {"dtype": {"type": "DT_FLOAT"}, "value": {"tensor": {"dtype": "DT_FLOAT", "tensorShape": {"dim": [{"size": "32"}]}}}}}, {"name": "StatefulPartitionedCall/model/batch_normalization_39/FusedBatchNorm/Scaled", "op": "Const", "input": ["^input_1"], "attr": {"value": {"tensor": {"dtype": "DT_FLOAT", "tensorShape": {"dim": [{"size": "32"}]}}}, "dtype": {"type": "DT_FLOAT"}}}, {"name": "StatefulPartitionedCall/model/batch_normalization_41/FusedBatchNorm/Scaled", "op": "Const", "input": ["^input_1"], "attr": {"dtype": {"type": "DT_FLOAT"}, "value": {"tensor": {"dtype": "DT_FLOAT", "tensorShape": {"dim": [{"size": "32"}]}}}}}, {"name": "StatefulPartitionedCall/model/batch_normalization_40/FusedBatchNorm/Offset", "op": "Const", "input": ["^input_1"], "attr": {"value": {"tensor": {"dtype": "DT_FLOAT", "tensorShape": {"dim": [{"size": "32"}]}}}, "dtype": {"type": "DT_FLOAT"}}}, {"name": "StatefulPartitionedCall/model/batch_normalization_40/FusedBatchNorm/Scaled", "op": "Const", "input": ["^input_1"], "attr": {"dtype": {"type": "DT_FLOAT"}, "value": {"tensor": {"dtype": "DT_FLOAT", "tensorShape": {"dim": [{"size": "32"}]}}}}}, {"name": "StatefulPartitionedCall/model/batch_normalization_42/FusedBatchNorm/Offset", "op": "Const", "input": ["^input_1"], "attr": {"value": {"tensor": {"dtype": "DT_FLOAT", "tensorShape": {"dim": [{"size": "32"}]}}}, "dtype": {"type": "DT_FLOAT"}}}, {"name": "StatefulPartitionedCall/model/batch_normalization_42/FusedBatchNorm/Scaled", "op": "Const", "input": ["^input_1"], "attr": {"value": {"tensor": {"dtype": "DT_FLOAT", "tensorShape": {"dim": [{"size": "32"}]}}}, "dtype": {"type": "DT_FLOAT"}}}, {"name": "StatefulPartitionedCall/model/batch_normalization_43/FusedBatchNorm/Scaled", "op": "Const", "input": ["^input_1"], "attr": {"value": {"tensor": {"dtype": "DT_FLOAT", "tensorShape": {"dim": [{"size": "32"}]}}}, "dtype": {"type": "DT_FLOAT"}}}, {"name": "StatefulPartitionedCall/model/batch_normalization_45/FusedBatchNorm/Scaled", "op": "Const", "input": ["^input_1"], "attr": {"dtype": {"type": "DT_FLOAT"}, "value": {"tensor": {"dtype": "DT_FLOAT", "tensorShape": {"dim": [{"size": "16"}]}}}}}, {"name": "StatefulPartitionedCall/model/batch_normalization_44/FusedBatchNorm/Offset", "op": "Const", "input": ["^input_1"], "attr": {"dtype": {"type": "DT_FLOAT"}, "value": {"tensor": {"dtype": "DT_FLOAT", "tensorShape": {"dim": [{"size": "16"}]}}}}}, {"name": "StatefulPartitionedCall/model/batch_normalization_44/FusedBatchNorm/Scaled", "op": "Const", "input": ["^input_1"], "attr": {"dtype": {"type": "DT_FLOAT"}, "value": {"tensor": {"dtype": "DT_FLOAT", "tensorShape": {"dim": [{"size": "16"}]}}}}}, {"name": "StatefulPartitionedCall/model/batch_normalization_46/FusedBatchNorm/Offset", "op": "Const", "input": ["^input_1"], "attr": {"value": {"tensor": {"dtype": "DT_FLOAT", "tensorShape": {"dim": [{"size": "16"}]}}}, "dtype": {"type": "DT_FLOAT"}}}, {"name": "StatefulPartitionedCall/model/batch_normalization_46/FusedBatchNorm/Scaled", "op": "Const", "input": ["^input_1"], "attr": {"dtype": {"type": "DT_FLOAT"}, "value": {"tensor": {"dtype": "DT_FLOAT", "tensorShape": {"dim": [{"size": "16"}]}}}}}, {"name": "StatefulPartitionedCall/model/batch_normalization_47/FusedBatchNorm/Scaled", "op": "Const", "input": ["^input_1"], "attr": {"dtype": {"type": "DT_FLOAT"}, "value": {"tensor": {"dtype": "DT_FLOAT", "tensorShape": {"dim": [{"size": "16"}]}}}}}, {"name": "StatefulPartitionedCall/model/batch_normalization_49/FusedBatchNorm/Scaled", "op": "Const", "input": ["^input_1"], "attr": {"value": {"tensor": {"dtype": "DT_FLOAT", "tensorShape": {"dim": [{"size": "16"}]}}}, "dtype": {"type": "DT_FLOAT"}}}, {"name": "StatefulPartitionedCall/model/batch_normalization_48/FusedBatchNorm/Offset", "op": "Const", "input": ["^input_1"], "attr": {"value": {"tensor": {"dtype": "DT_FLOAT", "tensorShape": {"dim": [{"size": "16"}]}}}, "dtype": {"type": "DT_FLOAT"}}}, {"name": "StatefulPartitionedCall/model/batch_normalization_48/FusedBatchNorm/Scaled", "op": "Const", "input": ["^input_1"], "attr": {"value": {"tensor": {"dtype": "DT_FLOAT", "tensorShape": {"dim": [{"size": "16"}]}}}, "dtype": {"type": "DT_FLOAT"}}}, {"name": "StatefulPartitionedCall/model/batch_normalization_50/FusedBatchNorm/Offset", "op": "Const", "input": ["^input_1"], "attr": {"dtype": {"type": "DT_FLOAT"}, "value": {"tensor": {"dtype": "DT_FLOAT", "tensorShape": {"dim": [{"size": "16"}]}}}}}, {"name": "StatefulPartitionedCall/model/batch_normalization_50/FusedBatchNorm/Scaled", "op": "Const", "input": ["^input_1"], "attr": {"value": {"tensor": {"dtype": "DT_FLOAT", "tensorShape": {"dim": [{"size": "16"}]}}}, "dtype": {"type": "DT_FLOAT"}}}, {"name": "StatefulPartitionedCall/model/batch_normalization_51/FusedBatchNorm/Scaled", "op": "Const", "input": ["^input_1"], "attr": {"dtype": {"type": "DT_FLOAT"}, "value": {"tensor": {"dtype": "DT_FLOAT", "tensorShape": {"dim": [{"size": "16"}]}}}}}, {"name": "StatefulPartitionedCall/model/block1_conv1_act/Relu", "op": "_FusedConv2D", "input": ["input_1", "StatefulPartitionedCall/model/block1_conv1/Conv2D/ReadVariableOp", "StatefulPartitionedCall/model/block1_conv1/Conv2D_bn_offset"], "device": "/device:CPU:0", "attr": {"strides": {"list": {"i": ["1", "2", "2", "1"]}}, "T": {"type": "DT_FLOAT"}, "fused_ops": {"list": {"s": ["Qmlhc0FkZA==", "UmVsdQ=="]}}, "dilations": {"list": {"i": ["1", "1", "1", "1"]}}, "epsilon": {"f": 0.0}, "explicit_paddings": {"list": {}}, "num_args": {"i": "1"}, "use_cudnn_on_gpu": {"b": true}, "padding": {"s": "VkFMSUQ="}, "data_format": {"s": "TkhXQw=="}}}, {"name": "StatefulPartitionedCall/model/block1_conv2_act/Relu", "op": "_FusedConv2D", "input": ["StatefulPartitionedCall/model/block1_conv1_act/Relu", "StatefulPartitionedCall/model/block1_conv2/Conv2D/ReadVariableOp", "StatefulPartitionedCall/model/block1_conv2/Conv2D_bn_offset"], "device": "/device:CPU:0", "attr": {"T": {"type": "DT_FLOAT"}, "fused_ops": {"list": {"s": ["Qmlhc0FkZA==", "UmVsdQ=="]}}, "padding": {"s": "VkFMSUQ="}, "data_format": {"s": "TkhXQw=="}, "explicit_paddings": {"list": {}}, "epsilon": {"f": 0.0}, "num_args": {"i": "1"}, "dilations": {"list": {"i": ["1", "1", "1", "1"]}}, "strides": {"list": {"i": ["1", "1", "1", "1"]}}, "use_cudnn_on_gpu": {"b": true}}}, {"name": "StatefulPartitionedCall/model/block2_sepconv1/separable_conv2d/depthwise", "op": "DepthwiseConv2dNative", "input": ["StatefulPartitionedCall/model/block1_conv2_act/Relu", "StatefulPartitionedCall/model/block2_sepconv1/separable_conv2d/ReadVariableOp"], "attr": {"data_format": {"s": "TkhXQw=="}, "strides": {"list": {"i": ["1", "1", "1", "1"]}}, "T": {"type": "DT_FLOAT"}, "dilations": {"list": {"i": ["1", "1", "1", "1"]}}, "padding": {"s": "U0FNRQ=="}}}, {"name": "StatefulPartitionedCall/model/batch_normalization/FusedBatchNorm", "op": "_FusedConv2D", "input": ["StatefulPartitionedCall/model/block1_conv2_act/Relu", "StatefulPartitionedCall/model/conv2d/Conv2D/ReadVariableOp", "StatefulPartitionedCall/model/conv2d/Conv2D_bn_offset"], "device": "/device:CPU:0", "attr": {"data_format": {"s": "TkhXQw=="}, "padding": {"s": "U0FNRQ=="}, "fused_ops": {"list": {"s": ["Qmlhc0FkZA=="]}}, "dilations": {"list": {"i": ["1", "1", "1", "1"]}}, "num_args": {"i": "1"}, "strides": {"list": {"i": ["1", "2", "2", "1"]}}, "T": {"type": "DT_FLOAT"}, "explicit_paddings": {"list": {}}, "epsilon": {"f": 0.0}, "use_cudnn_on_gpu": {"b": true}}}, {"name": "StatefulPartitionedCall/model/block2_sepconv2_act/Relu", "op": "_FusedConv2D", "input": ["StatefulPartitionedCall/model/block2_sepconv1/separable_conv2d/depthwise", "StatefulPartitionedCall/model/block2_sepconv1/separable_conv2d/ReadVariableOp_1", "StatefulPartitionedCall/model/block2_sepconv1/separable_conv2d_bn_offset"], "device": "/device:CPU:0", "attr": {"fused_ops": {"list": {"s": ["Qmlhc0FkZA==", "UmVsdQ=="]}}, "T": {"type": "DT_FLOAT"}, "padding": {"s": "VkFMSUQ="}, "dilations": {"list": {"i": ["1", "1", "1", "1"]}}, "num_args": {"i": "1"}, "use_cudnn_on_gpu": {"b": true}, "strides": {"list": {"i": ["1", "1", "1", "1"]}}, "data_format": {"s": "TkhXQw=="}, "explicit_paddings": {"list": {}}, "epsilon": {"f": 0.0}}}, {"name": "StatefulPartitionedCall/model/block2_sepconv2/separable_conv2d/depthwise", "op": "DepthwiseConv2dNative", "input": ["StatefulPartitionedCall/model/block2_sepconv2_act/Relu", "StatefulPartitionedCall/model/block2_sepconv2/separable_conv2d/ReadVariableOp"], "attr": {"padding": {"s": "U0FNRQ=="}, "strides": {"list": {"i": ["1", "1", "1", "1"]}}, "dilations": {"list": {"i": ["1", "1", "1", "1"]}}, "T": {"type": "DT_FLOAT"}, "data_format": {"s": "TkhXQw=="}}}, {"name": "StatefulPartitionedCall/model/block2_sepconv2_bn/FusedBatchNorm", "op": "_FusedConv2D", "input": ["StatefulPartitionedCall/model/block2_sepconv2/separable_conv2d/depthwise", "StatefulPartitionedCall/model/block2_sepconv2/separable_conv2d/ReadVariableOp_1", "StatefulPartitionedCall/model/block2_sepconv2/separable_conv2d_bn_offset"], "device": "/device:CPU:0", "attr": {"epsilon": {"f": 0.0}, "use_cudnn_on_gpu": {"b": true}, "dilations": {"list": {"i": ["1", "1", "1", "1"]}}, "fused_ops": {"list": {"s": ["Qmlhc0FkZA=="]}}, "explicit_paddings": {"list": {}}, "num_args": {"i": "1"}, "data_format": {"s": "TkhXQw=="}, "padding": {"s": "VkFMSUQ="}, "T": {"type": "DT_FLOAT"}, "strides": {"list": {"i": ["1", "1", "1", "1"]}}}}, {"name": "StatefulPartitionedCall/model/block2_pool/MaxPool", "op": "MaxPool", "input": ["StatefulPartitionedCall/model/block2_sepconv2_bn/FusedBatchNorm"], "attr": {"padding": {"s": "U0FNRQ=="}, "T": {"type": "DT_FLOAT"}, "data_format": {"s": "TkhXQw=="}, "strides": {"list": {"i": ["1", "2", "2", "1"]}}, "ksize": {"list": {"i": ["1", "3", "3", "1"]}}}}, {"name": "StatefulPartitionedCall/model/zero_padding2d_1/Pad", "op": "Pad", "input": ["StatefulPartitionedCall/model/block2_sepconv2_bn/FusedBatchNorm", "StatefulPartitionedCall/model/zero_padding2d_1/Pad/paddings"], "attr": {"T": {"type": "DT_FLOAT"}, "Tpaddings": {"type": "DT_INT32"}}}, {"name": "StatefulPartitionedCall/model/add/add", "op": "Add", "input": ["StatefulPartitionedCall/model/batch_normalization/FusedBatchNorm", "StatefulPartitionedCall/model/block2_pool/MaxPool"], "attr": {"T": {"type": "DT_FLOAT"}}}, {"name": "StatefulPartitionedCall/model/block3_sepconv1_act/Relu", "op": "Relu", "input": ["StatefulPartitionedCall/model/add/add"], "attr": {"T": {"type": "DT_FLOAT"}}}, {"name": "StatefulPartitionedCall/model/batch_normalization_1/FusedBatchNorm", "op": "_FusedConv2D", "input": ["StatefulPartitionedCall/model/add/add", "StatefulPartitionedCall/model/conv2d_1/Conv2D/ReadVariableOp", "StatefulPartitionedCall/model/conv2d_1/Conv2D_bn_offset"], "device": "/device:CPU:0", "attr": {"epsilon": {"f": 0.0}, "use_cudnn_on_gpu": {"b": true}, "T": {"type": "DT_FLOAT"}, "padding": {"s": "U0FNRQ=="}, "data_format": {"s": "TkhXQw=="}, "strides": {"list": {"i": ["1", "2", "2", "1"]}}, "dilations": {"list": {"i": ["1", "1", "1", "1"]}}, "fused_ops": {"list": {"s": ["Qmlhc0FkZA=="]}}, "num_args": {"i": "1"}, "explicit_paddings": {"list": {}}}}, {"name": "StatefulPartitionedCall/model/block3_sepconv1/separable_conv2d/depthwise", "op": "DepthwiseConv2dNative", "input": ["StatefulPartitionedCall/model/block3_sepconv1_act/Relu", "StatefulPartitionedCall/model/block3_sepconv1/separable_conv2d/ReadVariableOp"], "attr": {"data_format": {"s": "TkhXQw=="}, "strides": {"list": {"i": ["1", "1", "1", "1"]}}, "dilations": {"list": {"i": ["1", "1", "1", "1"]}}, "padding": {"s": "U0FNRQ=="}, "T": {"type": "DT_FLOAT"}}}, {"name": "StatefulPartitionedCall/model/block3_sepconv2_act/Relu", "op": "_FusedConv2D", "input": ["StatefulPartitionedCall/model/block3_sepconv1/separable_conv2d/depthwise", "StatefulPartitionedCall/model/block3_sepconv1/separable_conv2d/ReadVariableOp_1", "StatefulPartitionedCall/model/block3_sepconv1/separable_conv2d_bn_offset"], "device": "/device:CPU:0", "attr": {"strides": {"list": {"i": ["1", "1", "1", "1"]}}, "num_args": {"i": "1"}, "epsilon": {"f": 0.0}, "padding": {"s": "VkFMSUQ="}, "use_cudnn_on_gpu": {"b": true}, "fused_ops": {"list": {"s": ["Qmlhc0FkZA==", "UmVsdQ=="]}}, "T": {"type": "DT_FLOAT"}, "data_format": {"s": "TkhXQw=="}, "dilations": {"list": {"i": ["1", "1", "1", "1"]}}, "explicit_paddings": {"list": {}}}}, {"name": "StatefulPartitionedCall/model/block3_sepconv2/separable_conv2d/depthwise", "op": "DepthwiseConv2dNative", "input": ["StatefulPartitionedCall/model/block3_sepconv2_act/Relu", "StatefulPartitionedCall/model/block3_sepconv2/separable_conv2d/ReadVariableOp"], "attr": {"dilations": {"list": {"i": ["1", "1", "1", "1"]}}, "T": {"type": "DT_FLOAT"}, "data_format": {"s": "TkhXQw=="}, "padding": {"s": "U0FNRQ=="}, "strides": {"list": {"i": ["1", "1", "1", "1"]}}}}, {"name": "StatefulPartitionedCall/model/block3_sepconv2_bn/FusedBatchNorm", "op": "_FusedConv2D", "input": ["StatefulPartitionedCall/model/block3_sepconv2/separable_conv2d/depthwise", "StatefulPartitionedCall/model/block3_sepconv2/separable_conv2d/ReadVariableOp_1", "StatefulPartitionedCall/model/block3_sepconv2/separable_conv2d_bn_offset"], "device": "/device:CPU:0", "attr": {"explicit_paddings": {"list": {}}, "strides": {"list": {"i": ["1", "1", "1", "1"]}}, "padding": {"s": "VkFMSUQ="}, "epsilon": {"f": 0.0}, "dilations": {"list": {"i": ["1", "1", "1", "1"]}}, "T": {"type": "DT_FLOAT"}, "use_cudnn_on_gpu": {"b": true}, "num_args": {"i": "1"}, "data_format": {"s": "TkhXQw=="}, "fused_ops": {"list": {"s": ["Qmlhc0FkZA=="]}}}}, {"name": "StatefulPartitionedCall/model/block3_pool/MaxPool", "op": "MaxPool", "input": ["StatefulPartitionedCall/model/block3_sepconv2_bn/FusedBatchNorm"], "attr": {"ksize": {"list": {"i": ["1", "3", "3", "1"]}}, "data_format": {"s": "TkhXQw=="}, "strides": {"list": {"i": ["1", "2", "2", "1"]}}, "padding": {"s": "U0FNRQ=="}, "T": {"type": "DT_FLOAT"}}}, {"name": "StatefulPartitionedCall/model/zero_padding2d/Pad", "op": "Pad", "input": ["StatefulPartitionedCall/model/block3_sepconv2_bn/FusedBatchNorm", "StatefulPartitionedCall/model/zero_padding2d/Pad/paddings"], "attr": {"T": {"type": "DT_FLOAT"}, "Tpaddings": {"type": "DT_INT32"}}}, {"name": "StatefulPartitionedCall/model/add_1/add", "op": "Add", "input": ["StatefulPartitionedCall/model/batch_normalization_1/FusedBatchNorm", "StatefulPartitionedCall/model/block3_pool/MaxPool"], "attr": {"T": {"type": "DT_FLOAT"}}}, {"name": "StatefulPartitionedCall/model/block4_sepconv1_act/Relu", "op": "Relu", "input": ["StatefulPartitionedCall/model/add_1/add"], "attr": {"T": {"type": "DT_FLOAT"}}}, {"name": "StatefulPartitionedCall/model/batch_normalization_2/FusedBatchNorm", "op": "_FusedConv2D", "input": ["StatefulPartitionedCall/model/add_1/add", "StatefulPartitionedCall/model/conv2d_2/Conv2D/ReadVariableOp", "StatefulPartitionedCall/model/conv2d_2/Conv2D_bn_offset"], "device": "/device:CPU:0", "attr": {"use_cudnn_on_gpu": {"b": true}, "num_args": {"i": "1"}, "fused_ops": {"list": {"s": ["Qmlhc0FkZA=="]}}, "padding": {"s": "U0FNRQ=="}, "strides": {"list": {"i": ["1", "2", "2", "1"]}}, "explicit_paddings": {"list": {}}, "dilations": {"list": {"i": ["1", "1", "1", "1"]}}, "T": {"type": "DT_FLOAT"}, "data_format": {"s": "TkhXQw=="}, "epsilon": {"f": 0.0}}}, {"name": "StatefulPartitionedCall/model/block4_sepconv1/separable_conv2d/depthwise", "op": "DepthwiseConv2dNative", "input": ["StatefulPartitionedCall/model/block4_sepconv1_act/Relu", "StatefulPartitionedCall/model/block4_sepconv1/separable_conv2d/ReadVariableOp"], "attr": {"strides": {"list": {"i": ["1", "1", "1", "1"]}}, "padding": {"s": "U0FNRQ=="}, "data_format": {"s": "TkhXQw=="}, "T": {"type": "DT_FLOAT"}, "dilations": {"list": {"i": ["1", "1", "1", "1"]}}}}, {"name": "StatefulPartitionedCall/model/block4_sepconv2_act/Relu", "op": "_FusedConv2D", "input": ["StatefulPartitionedCall/model/block4_sepconv1/separable_conv2d/depthwise", "StatefulPartitionedCall/model/block4_sepconv1/separable_conv2d/ReadVariableOp_1", "StatefulPartitionedCall/model/block4_sepconv1/separable_conv2d_bn_offset"], "device": "/device:CPU:0", "attr": {"fused_ops": {"list": {"s": ["Qmlhc0FkZA==", "UmVsdQ=="]}}, "num_args": {"i": "1"}, "padding": {"s": "VkFMSUQ="}, "dilations": {"list": {"i": ["1", "1", "1", "1"]}}, "strides": {"list": {"i": ["1", "1", "1", "1"]}}, "T": {"type": "DT_FLOAT"}, "epsilon": {"f": 0.0}, "use_cudnn_on_gpu": {"b": true}, "data_format": {"s": "TkhXQw=="}, "explicit_paddings": {"list": {}}}}, {"name": "StatefulPartitionedCall/model/block4_sepconv2/separable_conv2d/depthwise", "op": "DepthwiseConv2dNative", "input": ["StatefulPartitionedCall/model/block4_sepconv2_act/Relu", "StatefulPartitionedCall/model/block4_sepconv2/separable_conv2d/ReadVariableOp"], "attr": {"strides": {"list": {"i": ["1", "1", "1", "1"]}}, "dilations": {"list": {"i": ["1", "1", "1", "1"]}}, "T": {"type": "DT_FLOAT"}, "padding": {"s": "U0FNRQ=="}, "data_format": {"s": "TkhXQw=="}}}, {"name": "StatefulPartitionedCall/model/block4_sepconv2_bn/FusedBatchNorm", "op": "_FusedConv2D", "input": ["StatefulPartitionedCall/model/block4_sepconv2/separable_conv2d/depthwise", "StatefulPartitionedCall/model/block4_sepconv2/separable_conv2d/ReadVariableOp_1", "StatefulPartitionedCall/model/block4_sepconv2/separable_conv2d_bn_offset"], "device": "/device:CPU:0", "attr": {"num_args": {"i": "1"}, "epsilon": {"f": 0.0}, "explicit_paddings": {"list": {}}, "fused_ops": {"list": {"s": ["Qmlhc0FkZA=="]}}, "use_cudnn_on_gpu": {"b": true}, "T": {"type": "DT_FLOAT"}, "dilations": {"list": {"i": ["1", "1", "1", "1"]}}, "strides": {"list": {"i": ["1", "1", "1", "1"]}}, "padding": {"s": "VkFMSUQ="}, "data_format": {"s": "TkhXQw=="}}}, {"name": "StatefulPartitionedCall/model/block4_pool/MaxPool", "op": "MaxPool", "input": ["StatefulPartitionedCall/model/block4_sepconv2_bn/FusedBatchNorm"], "attr": {"strides": {"list": {"i": ["1", "2", "2", "1"]}}, "data_format": {"s": "TkhXQw=="}, "T": {"type": "DT_FLOAT"}, "ksize": {"list": {"i": ["1", "3", "3", "1"]}}, "padding": {"s": "U0FNRQ=="}}}, {"name": "StatefulPartitionedCall/model/add_2/add", "op": "Add", "input": ["StatefulPartitionedCall/model/batch_normalization_2/FusedBatchNorm", "StatefulPartitionedCall/model/block4_pool/MaxPool"], "attr": {"T": {"type": "DT_FLOAT"}}}, {"name": "StatefulPartitionedCall/model/block5_sepconv1_act/Relu", "op": "Relu", "input": ["StatefulPartitionedCall/model/add_2/add"], "attr": {"T": {"type": "DT_FLOAT"}}}, {"name": "StatefulPartitionedCall/model/block5_sepconv1/separable_conv2d/depthwise", "op": "DepthwiseConv2dNative", "input": ["StatefulPartitionedCall/model/block5_sepconv1_act/Relu", "StatefulPartitionedCall/model/block5_sepconv1/separable_conv2d/ReadVariableOp"], "attr": {"padding": {"s": "U0FNRQ=="}, "strides": {"list": {"i": ["1", "1", "1", "1"]}}, "data_format": {"s": "TkhXQw=="}, "T": {"type": "DT_FLOAT"}, "dilations": {"list": {"i": ["1", "1", "1", "1"]}}}}, {"name": "StatefulPartitionedCall/model/block5_sepconv2_act/Relu", "op": "_FusedConv2D", "input": ["StatefulPartitionedCall/model/block5_sepconv1/separable_conv2d/depthwise", "StatefulPartitionedCall/model/block5_sepconv1/separable_conv2d/ReadVariableOp_1", "StatefulPartitionedCall/model/block5_sepconv1/separable_conv2d_bn_offset"], "device": "/device:CPU:0", "attr": {"explicit_paddings": {"list": {}}, "use_cudnn_on_gpu": {"b": true}, "T": {"type": "DT_FLOAT"}, "dilations": {"list": {"i": ["1", "1", "1", "1"]}}, "epsilon": {"f": 0.0}, "fused_ops": {"list": {"s": ["Qmlhc0FkZA==", "UmVsdQ=="]}}, "padding": {"s": "VkFMSUQ="}, "strides": {"list": {"i": ["1", "1", "1", "1"]}}, "data_format": {"s": "TkhXQw=="}, "num_args": {"i": "1"}}}, {"name": "StatefulPartitionedCall/model/block5_sepconv2/separable_conv2d/depthwise", "op": "DepthwiseConv2dNative", "input": ["StatefulPartitionedCall/model/block5_sepconv2_act/Relu", "StatefulPartitionedCall/model/block5_sepconv2/separable_conv2d/ReadVariableOp"], "attr": {"strides": {"list": {"i": ["1", "1", "1", "1"]}}, "dilations": {"list": {"i": ["1", "1", "1", "1"]}}, "data_format": {"s": "TkhXQw=="}, "padding": {"s": "U0FNRQ=="}, "T": {"type": "DT_FLOAT"}}}, {"name": "StatefulPartitionedCall/model/block5_sepconv3_act/Relu", "op": "_FusedConv2D", "input": ["StatefulPartitionedCall/model/block5_sepconv2/separable_conv2d/depthwise", "StatefulPartitionedCall/model/block5_sepconv2/separable_conv2d/ReadVariableOp_1", "StatefulPartitionedCall/model/block5_sepconv2/separable_conv2d_bn_offset"], "device": "/device:CPU:0", "attr": {"epsilon": {"f": 0.0}, "data_format": {"s": "TkhXQw=="}, "strides": {"list": {"i": ["1", "1", "1", "1"]}}, "padding": {"s": "VkFMSUQ="}, "fused_ops": {"list": {"s": ["Qmlhc0FkZA==", "UmVsdQ=="]}}, "explicit_paddings": {"list": {}}, "num_args": {"i": "1"}, "use_cudnn_on_gpu": {"b": true}, "dilations": {"list": {"i": ["1", "1", "1", "1"]}}, "T": {"type": "DT_FLOAT"}}}, {"name": "StatefulPartitionedCall/model/block5_sepconv3/separable_conv2d/depthwise", "op": "DepthwiseConv2dNative", "input": ["StatefulPartitionedCall/model/block5_sepconv3_act/Relu", "StatefulPartitionedCall/model/block5_sepconv3/separable_conv2d/ReadVariableOp"], "attr": {"padding": {"s": "U0FNRQ=="}, "T": {"type": "DT_FLOAT"}, "strides": {"list": {"i": ["1", "1", "1", "1"]}}, "data_format": {"s": "TkhXQw=="}, "dilations": {"list": {"i": ["1", "1", "1", "1"]}}}}, {"name": "StatefulPartitionedCall/model/block5_sepconv3_bn/FusedBatchNorm", "op": "_FusedConv2D", "input": ["StatefulPartitionedCall/model/block5_sepconv3/separable_conv2d/depthwise", "StatefulPartitionedCall/model/block5_sepconv3/separable_conv2d/ReadVariableOp_1", "StatefulPartitionedCall/model/block5_sepconv3/separable_conv2d_bn_offset"], "device": "/device:CPU:0", "attr": {"strides": {"list": {"i": ["1", "1", "1", "1"]}}, "explicit_paddings": {"list": {}}, "T": {"type": "DT_FLOAT"}, "dilations": {"list": {"i": ["1", "1", "1", "1"]}}, "data_format": {"s": "TkhXQw=="}, "use_cudnn_on_gpu": {"b": true}, "num_args": {"i": "1"}, "padding": {"s": "VkFMSUQ="}, "fused_ops": {"list": {"s": ["Qmlhc0FkZA=="]}}, "epsilon": {"f": 0.0}}}, {"name": "StatefulPartitionedCall/model/add_3/add", "op": "Add", "input": ["StatefulPartitionedCall/model/add_2/add", "StatefulPartitionedCall/model/block5_sepconv3_bn/FusedBatchNorm"], "attr": {"T": {"type": "DT_FLOAT"}}}, {"name": "StatefulPartitionedCall/model/block6_sepconv1_act/Relu", "op": "Relu", "input": ["StatefulPartitionedCall/model/add_3/add"], "attr": {"T": {"type": "DT_FLOAT"}}}, {"name": "StatefulPartitionedCall/model/block6_sepconv1/separable_conv2d/depthwise", "op": "DepthwiseConv2dNative", "input": ["StatefulPartitionedCall/model/block6_sepconv1_act/Relu", "StatefulPartitionedCall/model/block6_sepconv1/separable_conv2d/ReadVariableOp"], "attr": {"padding": {"s": "U0FNRQ=="}, "strides": {"list": {"i": ["1", "1", "1", "1"]}}, "T": {"type": "DT_FLOAT"}, "dilations": {"list": {"i": ["1", "1", "1", "1"]}}, "data_format": {"s": "TkhXQw=="}}}, {"name": "StatefulPartitionedCall/model/block6_sepconv2_act/Relu", "op": "_FusedConv2D", "input": ["StatefulPartitionedCall/model/block6_sepconv1/separable_conv2d/depthwise", "StatefulPartitionedCall/model/block6_sepconv1/separable_conv2d/ReadVariableOp_1", "StatefulPartitionedCall/model/block6_sepconv1/separable_conv2d_bn_offset"], "device": "/device:CPU:0", "attr": {"padding": {"s": "VkFMSUQ="}, "dilations": {"list": {"i": ["1", "1", "1", "1"]}}, "epsilon": {"f": 0.0}, "explicit_paddings": {"list": {}}, "strides": {"list": {"i": ["1", "1", "1", "1"]}}, "use_cudnn_on_gpu": {"b": true}, "fused_ops": {"list": {"s": ["Qmlhc0FkZA==", "UmVsdQ=="]}}, "T": {"type": "DT_FLOAT"}, "data_format": {"s": "TkhXQw=="}, "num_args": {"i": "1"}}}, {"name": "StatefulPartitionedCall/model/block6_sepconv2/separable_conv2d/depthwise", "op": "DepthwiseConv2dNative", "input": ["StatefulPartitionedCall/model/block6_sepconv2_act/Relu", "StatefulPartitionedCall/model/block6_sepconv2/separable_conv2d/ReadVariableOp"], "attr": {"padding": {"s": "U0FNRQ=="}, "dilations": {"list": {"i": ["1", "1", "1", "1"]}}, "strides": {"list": {"i": ["1", "1", "1", "1"]}}, "T": {"type": "DT_FLOAT"}, "data_format": {"s": "TkhXQw=="}}}, {"name": "StatefulPartitionedCall/model/block6_sepconv3_act/Relu", "op": "_FusedConv2D", "input": ["StatefulPartitionedCall/model/block6_sepconv2/separable_conv2d/depthwise", "StatefulPartitionedCall/model/block6_sepconv2/separable_conv2d/ReadVariableOp_1", "StatefulPartitionedCall/model/block6_sepconv2/separable_conv2d_bn_offset"], "device": "/device:CPU:0", "attr": {"padding": {"s": "VkFMSUQ="}, "fused_ops": {"list": {"s": ["Qmlhc0FkZA==", "UmVsdQ=="]}}, "num_args": {"i": "1"}, "explicit_paddings": {"list": {}}, "strides": {"list": {"i": ["1", "1", "1", "1"]}}, "epsilon": {"f": 0.0}, "dilations": {"list": {"i": ["1", "1", "1", "1"]}}, "use_cudnn_on_gpu": {"b": true}, "T": {"type": "DT_FLOAT"}, "data_format": {"s": "TkhXQw=="}}}, {"name": "StatefulPartitionedCall/model/block6_sepconv3/separable_conv2d/depthwise", "op": "DepthwiseConv2dNative", "input": ["StatefulPartitionedCall/model/block6_sepconv3_act/Relu", "StatefulPartitionedCall/model/block6_sepconv3/separable_conv2d/ReadVariableOp"], "attr": {"T": {"type": "DT_FLOAT"}, "data_format": {"s": "TkhXQw=="}, "strides": {"list": {"i": ["1", "1", "1", "1"]}}, "dilations": {"list": {"i": ["1", "1", "1", "1"]}}, "padding": {"s": "U0FNRQ=="}}}, {"name": "StatefulPartitionedCall/model/block6_sepconv3_bn/FusedBatchNorm", "op": "_FusedConv2D", "input": ["StatefulPartitionedCall/model/block6_sepconv3/separable_conv2d/depthwise", "StatefulPartitionedCall/model/block6_sepconv3/separable_conv2d/ReadVariableOp_1", "StatefulPartitionedCall/model/block6_sepconv3/separable_conv2d_bn_offset"], "device": "/device:CPU:0", "attr": {"epsilon": {"f": 0.0}, "dilations": {"list": {"i": ["1", "1", "1", "1"]}}, "use_cudnn_on_gpu": {"b": true}, "T": {"type": "DT_FLOAT"}, "padding": {"s": "VkFMSUQ="}, "data_format": {"s": "TkhXQw=="}, "num_args": {"i": "1"}, "fused_ops": {"list": {"s": ["Qmlhc0FkZA=="]}}, "explicit_paddings": {"list": {}}, "strides": {"list": {"i": ["1", "1", "1", "1"]}}}}, {"name": "StatefulPartitionedCall/model/add_4/add", "op": "Add", "input": ["StatefulPartitionedCall/model/add_3/add", "StatefulPartitionedCall/model/block6_sepconv3_bn/FusedBatchNorm"], "attr": {"T": {"type": "DT_FLOAT"}}}, {"name": "StatefulPartitionedCall/model/block7_sepconv1_act/Relu", "op": "Relu", "input": ["StatefulPartitionedCall/model/add_4/add"], "attr": {"T": {"type": "DT_FLOAT"}}}, {"name": "StatefulPartitionedCall/model/block7_sepconv1/separable_conv2d/depthwise", "op": "DepthwiseConv2dNative", "input": ["StatefulPartitionedCall/model/block7_sepconv1_act/Relu", "StatefulPartitionedCall/model/block7_sepconv1/separable_conv2d/ReadVariableOp"], "attr": {"strides": {"list": {"i": ["1", "1", "1", "1"]}}, "dilations": {"list": {"i": ["1", "1", "1", "1"]}}, "T": {"type": "DT_FLOAT"}, "padding": {"s": "U0FNRQ=="}, "data_format": {"s": "TkhXQw=="}}}, {"name": "StatefulPartitionedCall/model/block7_sepconv2_act/Relu", "op": "_FusedConv2D", "input": ["StatefulPartitionedCall/model/block7_sepconv1/separable_conv2d/depthwise", "StatefulPartitionedCall/model/block7_sepconv1/separable_conv2d/ReadVariableOp_1", "StatefulPartitionedCall/model/block7_sepconv1/separable_conv2d_bn_offset"], "device": "/device:CPU:0", "attr": {"padding": {"s": "VkFMSUQ="}, "data_format": {"s": "TkhXQw=="}, "T": {"type": "DT_FLOAT"}, "epsilon": {"f": 0.0}, "fused_ops": {"list": {"s": ["Qmlhc0FkZA==", "UmVsdQ=="]}}, "num_args": {"i": "1"}, "explicit_paddings": {"list": {}}, "dilations": {"list": {"i": ["1", "1", "1", "1"]}}, "use_cudnn_on_gpu": {"b": true}, "strides": {"list": {"i": ["1", "1", "1", "1"]}}}}, {"name": "StatefulPartitionedCall/model/block7_sepconv2/separable_conv2d/depthwise", "op": "DepthwiseConv2dNative", "input": ["StatefulPartitionedCall/model/block7_sepconv2_act/Relu", "StatefulPartitionedCall/model/block7_sepconv2/separable_conv2d/ReadVariableOp"], "attr": {"strides": {"list": {"i": ["1", "1", "1", "1"]}}, "T": {"type": "DT_FLOAT"}, "dilations": {"list": {"i": ["1", "1", "1", "1"]}}, "data_format": {"s": "TkhXQw=="}, "padding": {"s": "U0FNRQ=="}}}, {"name": "StatefulPartitionedCall/model/block7_sepconv3_act/Relu", "op": "_FusedConv2D", "input": ["StatefulPartitionedCall/model/block7_sepconv2/separable_conv2d/depthwise", "StatefulPartitionedCall/model/block7_sepconv2/separable_conv2d/ReadVariableOp_1", "StatefulPartitionedCall/model/block7_sepconv2/separable_conv2d_bn_offset"], "device": "/device:CPU:0", "attr": {"use_cudnn_on_gpu": {"b": true}, "T": {"type": "DT_FLOAT"}, "fused_ops": {"list": {"s": ["Qmlhc0FkZA==", "UmVsdQ=="]}}, "epsilon": {"f": 0.0}, "num_args": {"i": "1"}, "padding": {"s": "VkFMSUQ="}, "strides": {"list": {"i": ["1", "1", "1", "1"]}}, "dilations": {"list": {"i": ["1", "1", "1", "1"]}}, "explicit_paddings": {"list": {}}, "data_format": {"s": "TkhXQw=="}}}, {"name": "StatefulPartitionedCall/model/block7_sepconv3/separable_conv2d/depthwise", "op": "DepthwiseConv2dNative", "input": ["StatefulPartitionedCall/model/block7_sepconv3_act/Relu", "StatefulPartitionedCall/model/block7_sepconv3/separable_conv2d/ReadVariableOp"], "attr": {"T": {"type": "DT_FLOAT"}, "padding": {"s": "U0FNRQ=="}, "dilations": {"list": {"i": ["1", "1", "1", "1"]}}, "data_format": {"s": "TkhXQw=="}, "strides": {"list": {"i": ["1", "1", "1", "1"]}}}}, {"name": "StatefulPartitionedCall/model/block7_sepconv3_bn/FusedBatchNorm", "op": "_FusedConv2D", "input": ["StatefulPartitionedCall/model/block7_sepconv3/separable_conv2d/depthwise", "StatefulPartitionedCall/model/block7_sepconv3/separable_conv2d/ReadVariableOp_1", "StatefulPartitionedCall/model/block7_sepconv3/separable_conv2d_bn_offset"], "device": "/device:CPU:0", "attr": {"use_cudnn_on_gpu": {"b": true}, "num_args": {"i": "1"}, "explicit_paddings": {"list": {}}, "T": {"type": "DT_FLOAT"}, "padding": {"s": "VkFMSUQ="}, "epsilon": {"f": 0.0}, "dilations": {"list": {"i": ["1", "1", "1", "1"]}}, "data_format": {"s": "TkhXQw=="}, "fused_ops": {"list": {"s": ["Qmlhc0FkZA=="]}}, "strides": {"list": {"i": ["1", "1", "1", "1"]}}}}, {"name": "StatefulPartitionedCall/model/add_5/add", "op": "Add", "input": ["StatefulPartitionedCall/model/add_4/add", "StatefulPartitionedCall/model/block7_sepconv3_bn/FusedBatchNorm"], "attr": {"T": {"type": "DT_FLOAT"}}}, {"name": "StatefulPartitionedCall/model/block8_sepconv1_act/Relu", "op": "Relu", "input": ["StatefulPartitionedCall/model/add_5/add"], "attr": {"T": {"type": "DT_FLOAT"}}}, {"name": "StatefulPartitionedCall/model/block8_sepconv1/separable_conv2d/depthwise", "op": "DepthwiseConv2dNative", "input": ["StatefulPartitionedCall/model/block8_sepconv1_act/Relu", "StatefulPartitionedCall/model/block8_sepconv1/separable_conv2d/ReadVariableOp"], "attr": {"padding": {"s": "U0FNRQ=="}, "dilations": {"list": {"i": ["1", "1", "1", "1"]}}, "T": {"type": "DT_FLOAT"}, "strides": {"list": {"i": ["1", "1", "1", "1"]}}, "data_format": {"s": "TkhXQw=="}}}, {"name": "StatefulPartitionedCall/model/block8_sepconv2_act/Relu", "op": "_FusedConv2D", "input": ["StatefulPartitionedCall/model/block8_sepconv1/separable_conv2d/depthwise", "StatefulPartitionedCall/model/block8_sepconv1/separable_conv2d/ReadVariableOp_1", "StatefulPartitionedCall/model/block8_sepconv1/separable_conv2d_bn_offset"], "device": "/device:CPU:0", "attr": {"fused_ops": {"list": {"s": ["Qmlhc0FkZA==", "UmVsdQ=="]}}, "num_args": {"i": "1"}, "explicit_paddings": {"list": {}}, "strides": {"list": {"i": ["1", "1", "1", "1"]}}, "T": {"type": "DT_FLOAT"}, "dilations": {"list": {"i": ["1", "1", "1", "1"]}}, "epsilon": {"f": 0.0}, "padding": {"s": "VkFMSUQ="}, "data_format": {"s": "TkhXQw=="}, "use_cudnn_on_gpu": {"b": true}}}, {"name": "StatefulPartitionedCall/model/block8_sepconv2/separable_conv2d/depthwise", "op": "DepthwiseConv2dNative", "input": ["StatefulPartitionedCall/model/block8_sepconv2_act/Relu", "StatefulPartitionedCall/model/block8_sepconv2/separable_conv2d/ReadVariableOp"], "attr": {"strides": {"list": {"i": ["1", "1", "1", "1"]}}, "padding": {"s": "U0FNRQ=="}, "dilations": {"list": {"i": ["1", "1", "1", "1"]}}, "T": {"type": "DT_FLOAT"}, "data_format": {"s": "TkhXQw=="}}}, {"name": "StatefulPartitionedCall/model/block8_sepconv3_act/Relu", "op": "_FusedConv2D", "input": ["StatefulPartitionedCall/model/block8_sepconv2/separable_conv2d/depthwise", "StatefulPartitionedCall/model/block8_sepconv2/separable_conv2d/ReadVariableOp_1", "StatefulPartitionedCall/model/block8_sepconv2/separable_conv2d_bn_offset"], "device": "/device:CPU:0", "attr": {"data_format": {"s": "TkhXQw=="}, "num_args": {"i": "1"}, "fused_ops": {"list": {"s": ["Qmlhc0FkZA==", "UmVsdQ=="]}}, "use_cudnn_on_gpu": {"b": true}, "epsilon": {"f": 0.0}, "dilations": {"list": {"i": ["1", "1", "1", "1"]}}, "padding": {"s": "VkFMSUQ="}, "T": {"type": "DT_FLOAT"}, "explicit_paddings": {"list": {}}, "strides": {"list": {"i": ["1", "1", "1", "1"]}}}}, {"name": "StatefulPartitionedCall/model/block8_sepconv3/separable_conv2d/depthwise", "op": "DepthwiseConv2dNative", "input": ["StatefulPartitionedCall/model/block8_sepconv3_act/Relu", "StatefulPartitionedCall/model/block8_sepconv3/separable_conv2d/ReadVariableOp"], "attr": {"dilations": {"list": {"i": ["1", "1", "1", "1"]}}, "T": {"type": "DT_FLOAT"}, "data_format": {"s": "TkhXQw=="}, "padding": {"s": "U0FNRQ=="}, "strides": {"list": {"i": ["1", "1", "1", "1"]}}}}, {"name": "StatefulPartitionedCall/model/block8_sepconv3_bn/FusedBatchNorm", "op": "_FusedConv2D", "input": ["StatefulPartitionedCall/model/block8_sepconv3/separable_conv2d/depthwise", "StatefulPartitionedCall/model/block8_sepconv3/separable_conv2d/ReadVariableOp_1", "StatefulPartitionedCall/model/block8_sepconv3/separable_conv2d_bn_offset"], "device": "/device:CPU:0", "attr": {"explicit_paddings": {"list": {}}, "padding": {"s": "VkFMSUQ="}, "use_cudnn_on_gpu": {"b": true}, "fused_ops": {"list": {"s": ["Qmlhc0FkZA=="]}}, "data_format": {"s": "TkhXQw=="}, "strides": {"list": {"i": ["1", "1", "1", "1"]}}, "num_args": {"i": "1"}, "epsilon": {"f": 0.0}, "dilations": {"list": {"i": ["1", "1", "1", "1"]}}, "T": {"type": "DT_FLOAT"}}}, {"name": "StatefulPartitionedCall/model/add_6/add", "op": "Add", "input": ["StatefulPartitionedCall/model/add_5/add", "StatefulPartitionedCall/model/block8_sepconv3_bn/FusedBatchNorm"], "attr": {"T": {"type": "DT_FLOAT"}}}, {"name": "StatefulPartitionedCall/model/block9_sepconv1_act/Relu", "op": "Relu", "input": ["StatefulPartitionedCall/model/add_6/add"], "attr": {"T": {"type": "DT_FLOAT"}}}, {"name": "StatefulPartitionedCall/model/block9_sepconv1/separable_conv2d/depthwise", "op": "DepthwiseConv2dNative", "input": ["StatefulPartitionedCall/model/block9_sepconv1_act/Relu", "StatefulPartitionedCall/model/block9_sepconv1/separable_conv2d/ReadVariableOp"], "attr": {"T": {"type": "DT_FLOAT"}, "dilations": {"list": {"i": ["1", "1", "1", "1"]}}, "padding": {"s": "U0FNRQ=="}, "strides": {"list": {"i": ["1", "1", "1", "1"]}}, "data_format": {"s": "TkhXQw=="}}}, {"name": "StatefulPartitionedCall/model/block9_sepconv2_act/Relu", "op": "_FusedConv2D", "input": ["StatefulPartitionedCall/model/block9_sepconv1/separable_conv2d/depthwise", "StatefulPartitionedCall/model/block9_sepconv1/separable_conv2d/ReadVariableOp_1", "StatefulPartitionedCall/model/block9_sepconv1/separable_conv2d_bn_offset"], "device": "/device:CPU:0", "attr": {"strides": {"list": {"i": ["1", "1", "1", "1"]}}, "num_args": {"i": "1"}, "padding": {"s": "VkFMSUQ="}, "explicit_paddings": {"list": {}}, "use_cudnn_on_gpu": {"b": true}, "T": {"type": "DT_FLOAT"}, "dilations": {"list": {"i": ["1", "1", "1", "1"]}}, "fused_ops": {"list": {"s": ["Qmlhc0FkZA==", "UmVsdQ=="]}}, "epsilon": {"f": 0.0}, "data_format": {"s": "TkhXQw=="}}}, {"name": "StatefulPartitionedCall/model/block9_sepconv2/separable_conv2d/depthwise", "op": "DepthwiseConv2dNative", "input": ["StatefulPartitionedCall/model/block9_sepconv2_act/Relu", "StatefulPartitionedCall/model/block9_sepconv2/separable_conv2d/ReadVariableOp"], "attr": {"data_format": {"s": "TkhXQw=="}, "dilations": {"list": {"i": ["1", "1", "1", "1"]}}, "strides": {"list": {"i": ["1", "1", "1", "1"]}}, "padding": {"s": "U0FNRQ=="}, "T": {"type": "DT_FLOAT"}}}, {"name": "StatefulPartitionedCall/model/block9_sepconv3_act/Relu", "op": "_FusedConv2D", "input": ["StatefulPartitionedCall/model/block9_sepconv2/separable_conv2d/depthwise", "StatefulPartitionedCall/model/block9_sepconv2/separable_conv2d/ReadVariableOp_1", "StatefulPartitionedCall/model/block9_sepconv2/separable_conv2d_bn_offset"], "device": "/device:CPU:0", "attr": {"dilations": {"list": {"i": ["1", "1", "1", "1"]}}, "use_cudnn_on_gpu": {"b": true}, "T": {"type": "DT_FLOAT"}, "fused_ops": {"list": {"s": ["Qmlhc0FkZA==", "UmVsdQ=="]}}, "data_format": {"s": "TkhXQw=="}, "epsilon": {"f": 0.0}, "padding": {"s": "VkFMSUQ="}, "num_args": {"i": "1"}, "explicit_paddings": {"list": {}}, "strides": {"list": {"i": ["1", "1", "1", "1"]}}}}, {"name": "StatefulPartitionedCall/model/block9_sepconv3/separable_conv2d/depthwise", "op": "DepthwiseConv2dNative", "input": ["StatefulPartitionedCall/model/block9_sepconv3_act/Relu", "StatefulPartitionedCall/model/block9_sepconv3/separable_conv2d/ReadVariableOp"], "attr": {"data_format": {"s": "TkhXQw=="}, "strides": {"list": {"i": ["1", "1", "1", "1"]}}, "dilations": {"list": {"i": ["1", "1", "1", "1"]}}, "T": {"type": "DT_FLOAT"}, "padding": {"s": "U0FNRQ=="}}}, {"name": "StatefulPartitionedCall/model/block9_sepconv3_bn/FusedBatchNorm", "op": "_FusedConv2D", "input": ["StatefulPartitionedCall/model/block9_sepconv3/separable_conv2d/depthwise", "StatefulPartitionedCall/model/block9_sepconv3/separable_conv2d/ReadVariableOp_1", "StatefulPartitionedCall/model/block9_sepconv3/separable_conv2d_bn_offset"], "device": "/device:CPU:0", "attr": {"use_cudnn_on_gpu": {"b": true}, "padding": {"s": "VkFMSUQ="}, "strides": {"list": {"i": ["1", "1", "1", "1"]}}, "data_format": {"s": "TkhXQw=="}, "fused_ops": {"list": {"s": ["Qmlhc0FkZA=="]}}, "explicit_paddings": {"list": {}}, "dilations": {"list": {"i": ["1", "1", "1", "1"]}}, "epsilon": {"f": 0.0}, "num_args": {"i": "1"}, "T": {"type": "DT_FLOAT"}}}, {"name": "StatefulPartitionedCall/model/add_7/add", "op": "Add", "input": ["StatefulPartitionedCall/model/add_6/add", "StatefulPartitionedCall/model/block9_sepconv3_bn/FusedBatchNorm"], "attr": {"T": {"type": "DT_FLOAT"}}}, {"name": "StatefulPartitionedCall/model/block10_sepconv1_act/Relu", "op": "Relu", "input": ["StatefulPartitionedCall/model/add_7/add"], "attr": {"T": {"type": "DT_FLOAT"}}}, {"name": "StatefulPartitionedCall/model/block10_sepconv1/separable_conv2d/depthwise", "op": "DepthwiseConv2dNative", "input": ["StatefulPartitionedCall/model/block10_sepconv1_act/Relu", "StatefulPartitionedCall/model/block10_sepconv1/separable_conv2d/ReadVariableOp"], "attr": {"padding": {"s": "U0FNRQ=="}, "dilations": {"list": {"i": ["1", "1", "1", "1"]}}, "strides": {"list": {"i": ["1", "1", "1", "1"]}}, "T": {"type": "DT_FLOAT"}, "data_format": {"s": "TkhXQw=="}}}, {"name": "StatefulPartitionedCall/model/block10_sepconv2_act/Relu", "op": "_FusedConv2D", "input": ["StatefulPartitionedCall/model/block10_sepconv1/separable_conv2d/depthwise", "StatefulPartitionedCall/model/block10_sepconv1/separable_conv2d/ReadVariableOp_1", "StatefulPartitionedCall/model/block10_sepconv1/separable_conv2d_bn_offset"], "device": "/device:CPU:0", "attr": {"dilations": {"list": {"i": ["1", "1", "1", "1"]}}, "data_format": {"s": "TkhXQw=="}, "use_cudnn_on_gpu": {"b": true}, "epsilon": {"f": 0.0}, "num_args": {"i": "1"}, "fused_ops": {"list": {"s": ["Qmlhc0FkZA==", "UmVsdQ=="]}}, "T": {"type": "DT_FLOAT"}, "strides": {"list": {"i": ["1", "1", "1", "1"]}}, "padding": {"s": "VkFMSUQ="}, "explicit_paddings": {"list": {}}}}, {"name": "StatefulPartitionedCall/model/block10_sepconv2/separable_conv2d/depthwise", "op": "DepthwiseConv2dNative", "input": ["StatefulPartitionedCall/model/block10_sepconv2_act/Relu", "StatefulPartitionedCall/model/block10_sepconv2/separable_conv2d/ReadVariableOp"], "attr": {"padding": {"s": "U0FNRQ=="}, "T": {"type": "DT_FLOAT"}, "dilations": {"list": {"i": ["1", "1", "1", "1"]}}, "strides": {"list": {"i": ["1", "1", "1", "1"]}}, "data_format": {"s": "TkhXQw=="}}}, {"name": "StatefulPartitionedCall/model/block10_sepconv3_act/Relu", "op": "_FusedConv2D", "input": ["StatefulPartitionedCall/model/block10_sepconv2/separable_conv2d/depthwise", "StatefulPartitionedCall/model/block10_sepconv2/separable_conv2d/ReadVariableOp_1", "StatefulPartitionedCall/model/block10_sepconv2/separable_conv2d_bn_offset"], "device": "/device:CPU:0", "attr": {"explicit_paddings": {"list": {}}, "use_cudnn_on_gpu": {"b": true}, "epsilon": {"f": 0.0}, "strides": {"list": {"i": ["1", "1", "1", "1"]}}, "data_format": {"s": "TkhXQw=="}, "fused_ops": {"list": {"s": ["Qmlhc0FkZA==", "UmVsdQ=="]}}, "num_args": {"i": "1"}, "padding": {"s": "VkFMSUQ="}, "dilations": {"list": {"i": ["1", "1", "1", "1"]}}, "T": {"type": "DT_FLOAT"}}}, {"name": "StatefulPartitionedCall/model/block10_sepconv3/separable_conv2d/depthwise", "op": "DepthwiseConv2dNative", "input": ["StatefulPartitionedCall/model/block10_sepconv3_act/Relu", "StatefulPartitionedCall/model/block10_sepconv3/separable_conv2d/ReadVariableOp"], "attr": {"data_format": {"s": "TkhXQw=="}, "padding": {"s": "U0FNRQ=="}, "T": {"type": "DT_FLOAT"}, "strides": {"list": {"i": ["1", "1", "1", "1"]}}, "dilations": {"list": {"i": ["1", "1", "1", "1"]}}}}, {"name": "StatefulPartitionedCall/model/block10_sepconv3_bn/FusedBatchNorm", "op": "_FusedConv2D", "input": ["StatefulPartitionedCall/model/block10_sepconv3/separable_conv2d/depthwise", "StatefulPartitionedCall/model/block10_sepconv3/separable_conv2d/ReadVariableOp_1", "StatefulPartitionedCall/model/block10_sepconv3/separable_conv2d_bn_offset"], "device": "/device:CPU:0", "attr": {"dilations": {"list": {"i": ["1", "1", "1", "1"]}}, "explicit_paddings": {"list": {}}, "fused_ops": {"list": {"s": ["Qmlhc0FkZA=="]}}, "padding": {"s": "VkFMSUQ="}, "T": {"type": "DT_FLOAT"}, "num_args": {"i": "1"}, "epsilon": {"f": 0.0}, "data_format": {"s": "TkhXQw=="}, "strides": {"list": {"i": ["1", "1", "1", "1"]}}, "use_cudnn_on_gpu": {"b": true}}}, {"name": "StatefulPartitionedCall/model/add_8/add", "op": "Add", "input": ["StatefulPartitionedCall/model/add_7/add", "StatefulPartitionedCall/model/block10_sepconv3_bn/FusedBatchNorm"], "attr": {"T": {"type": "DT_FLOAT"}}}, {"name": "StatefulPartitionedCall/model/block11_sepconv1_act/Relu", "op": "Relu", "input": ["StatefulPartitionedCall/model/add_8/add"], "attr": {"T": {"type": "DT_FLOAT"}}}, {"name": "StatefulPartitionedCall/model/block11_sepconv1/separable_conv2d/depthwise", "op": "DepthwiseConv2dNative", "input": ["StatefulPartitionedCall/model/block11_sepconv1_act/Relu", "StatefulPartitionedCall/model/block11_sepconv1/separable_conv2d/ReadVariableOp"], "attr": {"strides": {"list": {"i": ["1", "1", "1", "1"]}}, "data_format": {"s": "TkhXQw=="}, "T": {"type": "DT_FLOAT"}, "padding": {"s": "U0FNRQ=="}, "dilations": {"list": {"i": ["1", "1", "1", "1"]}}}}, {"name": "StatefulPartitionedCall/model/block11_sepconv2_act/Relu", "op": "_FusedConv2D", "input": ["StatefulPartitionedCall/model/block11_sepconv1/separable_conv2d/depthwise", "StatefulPartitionedCall/model/block11_sepconv1/separable_conv2d/ReadVariableOp_1", "StatefulPartitionedCall/model/block11_sepconv1/separable_conv2d_bn_offset"], "device": "/device:CPU:0", "attr": {"data_format": {"s": "TkhXQw=="}, "num_args": {"i": "1"}, "T": {"type": "DT_FLOAT"}, "strides": {"list": {"i": ["1", "1", "1", "1"]}}, "use_cudnn_on_gpu": {"b": true}, "epsilon": {"f": 0.0}, "fused_ops": {"list": {"s": ["Qmlhc0FkZA==", "UmVsdQ=="]}}, "dilations": {"list": {"i": ["1", "1", "1", "1"]}}, "explicit_paddings": {"list": {}}, "padding": {"s": "VkFMSUQ="}}}, {"name": "StatefulPartitionedCall/model/block11_sepconv2/separable_conv2d/depthwise", "op": "DepthwiseConv2dNative", "input": ["StatefulPartitionedCall/model/block11_sepconv2_act/Relu", "StatefulPartitionedCall/model/block11_sepconv2/separable_conv2d/ReadVariableOp"], "attr": {"padding": {"s": "U0FNRQ=="}, "T": {"type": "DT_FLOAT"}, "dilations": {"list": {"i": ["1", "1", "1", "1"]}}, "data_format": {"s": "TkhXQw=="}, "strides": {"list": {"i": ["1", "1", "1", "1"]}}}}, {"name": "StatefulPartitionedCall/model/block11_sepconv3_act/Relu", "op": "_FusedConv2D", "input": ["StatefulPartitionedCall/model/block11_sepconv2/separable_conv2d/depthwise", "StatefulPartitionedCall/model/block11_sepconv2/separable_conv2d/ReadVariableOp_1", "StatefulPartitionedCall/model/block11_sepconv2/separable_conv2d_bn_offset"], "device": "/device:CPU:0", "attr": {"fused_ops": {"list": {"s": ["Qmlhc0FkZA==", "UmVsdQ=="]}}, "explicit_paddings": {"list": {}}, "epsilon": {"f": 0.0}, "num_args": {"i": "1"}, "padding": {"s": "VkFMSUQ="}, "strides": {"list": {"i": ["1", "1", "1", "1"]}}, "T": {"type": "DT_FLOAT"}, "data_format": {"s": "TkhXQw=="}, "use_cudnn_on_gpu": {"b": true}, "dilations": {"list": {"i": ["1", "1", "1", "1"]}}}}, {"name": "StatefulPartitionedCall/model/block11_sepconv3/separable_conv2d/depthwise", "op": "DepthwiseConv2dNative", "input": ["StatefulPartitionedCall/model/block11_sepconv3_act/Relu", "StatefulPartitionedCall/model/block11_sepconv3/separable_conv2d/ReadVariableOp"], "attr": {"padding": {"s": "U0FNRQ=="}, "data_format": {"s": "TkhXQw=="}, "dilations": {"list": {"i": ["1", "1", "1", "1"]}}, "strides": {"list": {"i": ["1", "1", "1", "1"]}}, "T": {"type": "DT_FLOAT"}}}, {"name": "StatefulPartitionedCall/model/block11_sepconv3_bn/FusedBatchNorm", "op": "_FusedConv2D", "input": ["StatefulPartitionedCall/model/block11_sepconv3/separable_conv2d/depthwise", "StatefulPartitionedCall/model/block11_sepconv3/separable_conv2d/ReadVariableOp_1", "StatefulPartitionedCall/model/block11_sepconv3/separable_conv2d_bn_offset"], "device": "/device:CPU:0", "attr": {"use_cudnn_on_gpu": {"b": true}, "epsilon": {"f": 0.0}, "fused_ops": {"list": {"s": ["Qmlhc0FkZA=="]}}, "padding": {"s": "VkFMSUQ="}, "num_args": {"i": "1"}, "data_format": {"s": "TkhXQw=="}, "explicit_paddings": {"list": {}}, "T": {"type": "DT_FLOAT"}, "dilations": {"list": {"i": ["1", "1", "1", "1"]}}, "strides": {"list": {"i": ["1", "1", "1", "1"]}}}}, {"name": "StatefulPartitionedCall/model/add_9/add", "op": "Add", "input": ["StatefulPartitionedCall/model/add_8/add", "StatefulPartitionedCall/model/block11_sepconv3_bn/FusedBatchNorm"], "attr": {"T": {"type": "DT_FLOAT"}}}, {"name": "StatefulPartitionedCall/model/block12_sepconv1_act/Relu", "op": "Relu", "input": ["StatefulPartitionedCall/model/add_9/add"], "attr": {"T": {"type": "DT_FLOAT"}}}, {"name": "StatefulPartitionedCall/model/block12_sepconv1/separable_conv2d/depthwise", "op": "DepthwiseConv2dNative", "input": ["StatefulPartitionedCall/model/block12_sepconv1_act/Relu", "StatefulPartitionedCall/model/block12_sepconv1/separable_conv2d/ReadVariableOp"], "attr": {"data_format": {"s": "TkhXQw=="}, "T": {"type": "DT_FLOAT"}, "dilations": {"list": {"i": ["1", "1", "1", "1"]}}, "strides": {"list": {"i": ["1", "1", "1", "1"]}}, "padding": {"s": "U0FNRQ=="}}}, {"name": "StatefulPartitionedCall/model/block12_sepconv2_act/Relu", "op": "_FusedConv2D", "input": ["StatefulPartitionedCall/model/block12_sepconv1/separable_conv2d/depthwise", "StatefulPartitionedCall/model/block12_sepconv1/separable_conv2d/ReadVariableOp_1", "StatefulPartitionedCall/model/block12_sepconv1/separable_conv2d_bn_offset"], "device": "/device:CPU:0", "attr": {"fused_ops": {"list": {"s": ["Qmlhc0FkZA==", "UmVsdQ=="]}}, "dilations": {"list": {"i": ["1", "1", "1", "1"]}}, "strides": {"list": {"i": ["1", "1", "1", "1"]}}, "epsilon": {"f": 0.0}, "use_cudnn_on_gpu": {"b": true}, "padding": {"s": "VkFMSUQ="}, "explicit_paddings": {"list": {}}, "data_format": {"s": "TkhXQw=="}, "num_args": {"i": "1"}, "T": {"type": "DT_FLOAT"}}}, {"name": "StatefulPartitionedCall/model/block12_sepconv2/separable_conv2d/depthwise", "op": "DepthwiseConv2dNative", "input": ["StatefulPartitionedCall/model/block12_sepconv2_act/Relu", "StatefulPartitionedCall/model/block12_sepconv2/separable_conv2d/ReadVariableOp"], "attr": {"T": {"type": "DT_FLOAT"}, "padding": {"s": "U0FNRQ=="}, "strides": {"list": {"i": ["1", "1", "1", "1"]}}, "data_format": {"s": "TkhXQw=="}, "dilations": {"list": {"i": ["1", "1", "1", "1"]}}}}, {"name": "StatefulPartitionedCall/model/block12_sepconv3_act/Relu", "op": "_FusedConv2D", "input": ["StatefulPartitionedCall/model/block12_sepconv2/separable_conv2d/depthwise", "StatefulPartitionedCall/model/block12_sepconv2/separable_conv2d/ReadVariableOp_1", "StatefulPartitionedCall/model/block12_sepconv2/separable_conv2d_bn_offset"], "device": "/device:CPU:0", "attr": {"use_cudnn_on_gpu": {"b": true}, "epsilon": {"f": 0.0}, "strides": {"list": {"i": ["1", "1", "1", "1"]}}, "dilations": {"list": {"i": ["1", "1", "1", "1"]}}, "explicit_paddings": {"list": {}}, "fused_ops": {"list": {"s": ["Qmlhc0FkZA==", "UmVsdQ=="]}}, "num_args": {"i": "1"}, "data_format": {"s": "TkhXQw=="}, "padding": {"s": "VkFMSUQ="}, "T": {"type": "DT_FLOAT"}}}, {"name": "StatefulPartitionedCall/model/block12_sepconv3/separable_conv2d/depthwise", "op": "DepthwiseConv2dNative", "input": ["StatefulPartitionedCall/model/block12_sepconv3_act/Relu", "StatefulPartitionedCall/model/block12_sepconv3/separable_conv2d/ReadVariableOp"], "attr": {"strides": {"list": {"i": ["1", "1", "1", "1"]}}, "padding": {"s": "U0FNRQ=="}, "data_format": {"s": "TkhXQw=="}, "T": {"type": "DT_FLOAT"}, "dilations": {"list": {"i": ["1", "1", "1", "1"]}}}}, {"name": "StatefulPartitionedCall/model/block12_sepconv3_bn/FusedBatchNorm", "op": "_FusedConv2D", "input": ["StatefulPartitionedCall/model/block12_sepconv3/separable_conv2d/depthwise", "StatefulPartitionedCall/model/block12_sepconv3/separable_conv2d/ReadVariableOp_1", "StatefulPartitionedCall/model/block12_sepconv3/separable_conv2d_bn_offset"], "device": "/device:CPU:0", "attr": {"dilations": {"list": {"i": ["1", "1", "1", "1"]}}, "num_args": {"i": "1"}, "T": {"type": "DT_FLOAT"}, "fused_ops": {"list": {"s": ["Qmlhc0FkZA=="]}}, "explicit_paddings": {"list": {}}, "data_format": {"s": "TkhXQw=="}, "padding": {"s": "VkFMSUQ="}, "strides": {"list": {"i": ["1", "1", "1", "1"]}}, "use_cudnn_on_gpu": {"b": true}, "epsilon": {"f": 0.0}}}, {"name": "StatefulPartitionedCall/model/add_10/add", "op": "Add", "input": ["StatefulPartitionedCall/model/add_9/add", "StatefulPartitionedCall/model/block12_sepconv3_bn/FusedBatchNorm"], "attr": {"T": {"type": "DT_FLOAT"}}}, {"name": "StatefulPartitionedCall/model/block13_sepconv1_act/Relu", "op": "Relu", "input": ["StatefulPartitionedCall/model/add_10/add"], "attr": {"T": {"type": "DT_FLOAT"}}}, {"name": "StatefulPartitionedCall/model/block13_sepconv1/separable_conv2d/depthwise", "op": "DepthwiseConv2dNative", "input": ["StatefulPartitionedCall/model/block13_sepconv1_act/Relu", "StatefulPartitionedCall/model/block13_sepconv1/separable_conv2d/ReadVariableOp"], "attr": {"padding": {"s": "U0FNRQ=="}, "dilations": {"list": {"i": ["1", "1", "1", "1"]}}, "T": {"type": "DT_FLOAT"}, "data_format": {"s": "TkhXQw=="}, "strides": {"list": {"i": ["1", "1", "1", "1"]}}}}, {"name": "StatefulPartitionedCall/model/block13_sepconv2_act/Relu", "op": "_FusedConv2D", "input": ["StatefulPartitionedCall/model/block13_sepconv1/separable_conv2d/depthwise", "StatefulPartitionedCall/model/block13_sepconv1/separable_conv2d/ReadVariableOp_1", "StatefulPartitionedCall/model/block13_sepconv1/separable_conv2d_bn_offset"], "device": "/device:CPU:0", "attr": {"dilations": {"list": {"i": ["1", "1", "1", "1"]}}, "fused_ops": {"list": {"s": ["Qmlhc0FkZA==", "UmVsdQ=="]}}, "num_args": {"i": "1"}, "epsilon": {"f": 0.0}, "data_format": {"s": "TkhXQw=="}, "padding": {"s": "VkFMSUQ="}, "strides": {"list": {"i": ["1", "1", "1", "1"]}}, "explicit_paddings": {"list": {}}, "use_cudnn_on_gpu": {"b": true}, "T": {"type": "DT_FLOAT"}}}, {"name": "StatefulPartitionedCall/model/block13_sepconv2/separable_conv2d/depthwise", "op": "DepthwiseConv2dNative", "input": ["StatefulPartitionedCall/model/block13_sepconv2_act/Relu", "StatefulPartitionedCall/model/block13_sepconv2/separable_conv2d/ReadVariableOp"], "attr": {"dilations": {"list": {"i": ["1", "1", "1", "1"]}}, "data_format": {"s": "TkhXQw=="}, "T": {"type": "DT_FLOAT"}, "padding": {"s": "U0FNRQ=="}, "strides": {"list": {"i": ["1", "1", "1", "1"]}}}}, {"name": "StatefulPartitionedCall/model/block13_sepconv2_bn/FusedBatchNorm", "op": "_FusedConv2D", "input": ["StatefulPartitionedCall/model/block13_sepconv2/separable_conv2d/depthwise", "StatefulPartitionedCall/model/block13_sepconv2/separable_conv2d/ReadVariableOp_1", "StatefulPartitionedCall/model/block13_sepconv2/separable_conv2d_bn_offset"], "device": "/device:CPU:0", "attr": {"fused_ops": {"list": {"s": ["Qmlhc0FkZA=="]}}, "explicit_paddings": {"list": {}}, "use_cudnn_on_gpu": {"b": true}, "epsilon": {"f": 0.0}, "padding": {"s": "VkFMSUQ="}, "strides": {"list": {"i": ["1", "1", "1", "1"]}}, "dilations": {"list": {"i": ["1", "1", "1", "1"]}}, "T": {"type": "DT_FLOAT"}, "data_format": {"s": "TkhXQw=="}, "num_args": {"i": "1"}}}, {"name": "StatefulPartitionedCall/model/leaky_re_lu/LeakyRelu", "op": "LeakyRelu", "input": ["StatefulPartitionedCall/model/block13_sepconv2_bn/FusedBatchNorm"], "attr": {"T": {"type": "DT_FLOAT"}, "alpha": {"f": 0.1}}}, {"name": "StatefulPartitionedCall/model/max_pooling2d/MaxPool", "op": "MaxPool", "input": ["StatefulPartitionedCall/model/leaky_re_lu/LeakyRelu"], "attr": {"ksize": {"list": {"i": ["1", "2", "2", "1"]}}, "strides": {"list": {"i": ["1", "2", "2", "1"]}}, "data_format": {"s": "TkhXQw=="}, "T": {"type": "DT_FLOAT"}, "padding": {"s": "VkFMSUQ="}}}, {"name": "StatefulPartitionedCall/model/conv2d_4/BiasAdd", "op": "_FusedConv2D", "input": ["StatefulPartitionedCall/model/max_pooling2d/MaxPool", "StatefulPartitionedCall/model/conv2d_4/Conv2D/ReadVariableOp", "StatefulPartitionedCall/model/conv2d_4/BiasAdd/ReadVariableOp"], "device": "/device:CPU:0", "attr": {"strides": {"list": {"i": ["1", "1", "1", "1"]}}, "data_format": {"s": "TkhXQw=="}, "dilations": {"list": {"i": ["1", "1", "1", "1"]}}, "T": {"type": "DT_FLOAT"}, "use_cudnn_on_gpu": {"b": true}, "num_args": {"i": "1"}, "epsilon": {"f": 0.0}, "fused_ops": {"list": {"s": ["Qmlhc0FkZA=="]}}, "explicit_paddings": {"list": {}}, "padding": {"s": "U0FNRQ=="}}}, {"name": "StatefulPartitionedCall/model/batch_normalization_5/FusedBatchNorm/Mul", "op": "Mul", "input": ["StatefulPartitionedCall/model/batch_normalization_5/FusedBatchNorm/Scaled", "StatefulPartitionedCall/model/conv2d_4/BiasAdd"], "attr": {"T": {"type": "DT_FLOAT"}}}, {"name": "StatefulPartitionedCall/model/leaky_re_lu_1/LeakyRelu", "op": "LeakyRelu", "input": ["StatefulPartitionedCall/model/conv2d_4/BiasAdd"], "attr": {"T": {"type": "DT_FLOAT"}, "alpha": {"f": 0.1}}}, {"name": "StatefulPartitionedCall/model/batch_normalization_4/FusedBatchNorm/Mul", "op": "Mul", "input": ["StatefulPartitionedCall/model/batch_normalization_4/FusedBatchNorm/Scaled", "StatefulPartitionedCall/model/leaky_re_lu_1/LeakyRelu"], "attr": {"T": {"type": "DT_FLOAT"}}}, {"name": "StatefulPartitionedCall/model/batch_normalization_4/FusedBatchNorm", "op": "Add", "input": ["StatefulPartitionedCall/model/batch_normalization_4/FusedBatchNorm/Mul", "StatefulPartitionedCall/model/batch_normalization_4/FusedBatchNorm/Offset"], "attr": {"T": {"type": "DT_FLOAT"}}}, {"name": "StatefulPartitionedCall/model/conv2d_5/BiasAdd", "op": "_FusedConv2D", "input": ["StatefulPartitionedCall/model/batch_normalization_4/FusedBatchNorm", "StatefulPartitionedCall/model/conv2d_5/Conv2D/ReadVariableOp", "StatefulPartitionedCall/model/conv2d_5/BiasAdd/ReadVariableOp"], "device": "/device:CPU:0", "attr": {"strides": {"list": {"i": ["1", "1", "1", "1"]}}, "explicit_paddings": {"list": {}}, "num_args": {"i": "1"}, "dilations": {"list": {"i": ["1", "1", "1", "1"]}}, "use_cudnn_on_gpu": {"b": true}, "data_format": {"s": "TkhXQw=="}, "T": {"type": "DT_FLOAT"}, "fused_ops": {"list": {"s": ["Qmlhc0FkZA=="]}}, "epsilon": {"f": 0.0}, "padding": {"s": "U0FNRQ=="}}}, {"name": "StatefulPartitionedCall/model/batch_normalization_6/FusedBatchNorm/Mul", "op": "Mul", "input": ["StatefulPartitionedCall/model/batch_normalization_6/FusedBatchNorm/Scaled", "StatefulPartitionedCall/model/conv2d_5/BiasAdd"], "attr": {"T": {"type": "DT_FLOAT"}}}, {"name": "StatefulPartitionedCall/model/batch_normalization_6/FusedBatchNorm", "op": "Add", "input": ["StatefulPartitionedCall/model/batch_normalization_6/FusedBatchNorm/Mul", "StatefulPartitionedCall/model/batch_normalization_6/FusedBatchNorm/Offset"], "attr": {"T": {"type": "DT_FLOAT"}}}, {"name": "StatefulPartitionedCall/model/leaky_re_lu_2/LeakyRelu", "op": "LeakyRelu", "input": ["StatefulPartitionedCall/model/batch_normalization_6/FusedBatchNorm"], "attr": {"T": {"type": "DT_FLOAT"}, "alpha": {"f": 0.1}}}, {"name": "StatefulPartitionedCall/model/conv2d_6/BiasAdd", "op": "_FusedConv2D", "input": ["StatefulPartitionedCall/model/leaky_re_lu_2/LeakyRelu", "StatefulPartitionedCall/model/conv2d_6/Conv2D/ReadVariableOp", "StatefulPartitionedCall/model/conv2d_6/BiasAdd/ReadVariableOp"], "device": "/device:CPU:0", "attr": {"epsilon": {"f": 0.0}, "padding": {"s": "U0FNRQ=="}, "T": {"type": "DT_FLOAT"}, "dilations": {"list": {"i": ["1", "1", "1", "1"]}}, "num_args": {"i": "1"}, "use_cudnn_on_gpu": {"b": true}, "strides": {"list": {"i": ["1", "1", "1", "1"]}}, "explicit_paddings": {"list": {}}, "fused_ops": {"list": {"s": ["Qmlhc0FkZA=="]}}, "data_format": {"s": "TkhXQw=="}}}, {"name": "StatefulPartitionedCall/model/batch_normalization_7/FusedBatchNorm/Mul", "op": "Mul", "input": ["StatefulPartitionedCall/model/batch_normalization_7/FusedBatchNorm/Scaled", "StatefulPartitionedCall/model/conv2d_6/BiasAdd"], "attr": {"T": {"type": "DT_FLOAT"}}}, {"name": "StatefulPartitionedCall/model/add_12/ArithmeticOptimizer/AddOpsRewrite_Leaf_1_add", "op": "AddN", "input": ["StatefulPartitionedCall/model/batch_normalization_5/FusedBatchNorm/Mul", "StatefulPartitionedCall/model/batch_normalization_7/FusedBatchNorm/Mul"], "attr": {"N": {"i": "2"}, "T": {"type": "DT_FLOAT"}, "_grappler:ArithmeticOptimizer:AddOpsRewriteStage": {"b": true}}}, {"name": "StatefulPartitionedCall/model/add_12/ArithmeticOptimizer/AddOpsRewrite_add", "op": "Add", "input": ["StatefulPartitionedCall/model/add_12/ArithmeticOptimizer/AddOpsRewrite_Leaf_0_add", "StatefulPartitionedCall/model/add_12/ArithmeticOptimizer/AddOpsRewrite_Leaf_1_add"], "attr": {"T": {"type": "DT_FLOAT"}, "_grappler:ArithmeticOptimizer:AddOpsRewriteStage": {"b": true}}}, {"name": "StatefulPartitionedCall/model/leaky_re_lu_3/LeakyRelu", "op": "LeakyRelu", "input": ["StatefulPartitionedCall/model/add_12/ArithmeticOptimizer/AddOpsRewrite_add"], "attr": {"alpha": {"f": 0.1}, "T": {"type": "DT_FLOAT"}}}, {"name": "StatefulPartitionedCall/model/batch_normalization_9/FusedBatchNorm/Mul", "op": "Mul", "input": ["StatefulPartitionedCall/model/add_12/ArithmeticOptimizer/AddOpsRewrite_add", "StatefulPartitionedCall/model/batch_normalization_9/FusedBatchNorm/Scaled"], "attr": {"T": {"type": "DT_FLOAT"}}}, {"name": "StatefulPartitionedCall/model/batch_normalization_8/FusedBatchNorm/Mul", "op": "Mul", "input": ["StatefulPartitionedCall/model/batch_normalization_8/FusedBatchNorm/Scaled", "StatefulPartitionedCall/model/leaky_re_lu_3/LeakyRelu"], "attr": {"T": {"type": "DT_FLOAT"}}}, {"name": "StatefulPartitionedCall/model/batch_normalization_8/FusedBatchNorm", "op": "Add", "input": ["StatefulPartitionedCall/model/batch_normalization_8/FusedBatchNorm/Mul", "StatefulPartitionedCall/model/batch_normalization_8/FusedBatchNorm/Offset"], "attr": {"T": {"type": "DT_FLOAT"}}}, {"name": "StatefulPartitionedCall/model/conv2d_7/BiasAdd", "op": "_FusedConv2D", "input": ["StatefulPartitionedCall/model/batch_normalization_8/FusedBatchNorm", "StatefulPartitionedCall/model/conv2d_7/Conv2D/ReadVariableOp", "StatefulPartitionedCall/model/conv2d_7/BiasAdd/ReadVariableOp"], "device": "/device:CPU:0", "attr": {"num_args": {"i": "1"}, "strides": {"list": {"i": ["1", "1", "1", "1"]}}, "explicit_paddings": {"list": {}}, "data_format": {"s": "TkhXQw=="}, "dilations": {"list": {"i": ["1", "1", "1", "1"]}}, "use_cudnn_on_gpu": {"b": true}, "epsilon": {"f": 0.0}, "padding": {"s": "U0FNRQ=="}, "fused_ops": {"list": {"s": ["Qmlhc0FkZA=="]}}, "T": {"type": "DT_FLOAT"}}}, {"name": "StatefulPartitionedCall/model/batch_normalization_10/FusedBatchNorm/Mul", "op": "Mul", "input": ["StatefulPartitionedCall/model/batch_normalization_10/FusedBatchNorm/Scaled", "StatefulPartitionedCall/model/conv2d_7/BiasAdd"], "attr": {"T": {"type": "DT_FLOAT"}}}, {"name": "StatefulPartitionedCall/model/batch_normalization_10/FusedBatchNorm", "op": "Add", "input": ["StatefulPartitionedCall/model/batch_normalization_10/FusedBatchNorm/Mul", "StatefulPartitionedCall/model/batch_normalization_10/FusedBatchNorm/Offset"], "attr": {"T": {"type": "DT_FLOAT"}}}, {"name": "StatefulPartitionedCall/model/leaky_re_lu_4/LeakyRelu", "op": "LeakyRelu", "input": ["StatefulPartitionedCall/model/batch_normalization_10/FusedBatchNorm"], "attr": {"alpha": {"f": 0.1}, "T": {"type": "DT_FLOAT"}}}, {"name": "StatefulPartitionedCall/model/conv2d_8/BiasAdd", "op": "_FusedConv2D", "input": ["StatefulPartitionedCall/model/leaky_re_lu_4/LeakyRelu", "StatefulPartitionedCall/model/conv2d_8/Conv2D/ReadVariableOp", "StatefulPartitionedCall/model/conv2d_8/BiasAdd/ReadVariableOp"], "device": "/device:CPU:0", "attr": {"T": {"type": "DT_FLOAT"}, "padding": {"s": "U0FNRQ=="}, "strides": {"list": {"i": ["1", "1", "1", "1"]}}, "num_args": {"i": "1"}, "epsilon": {"f": 0.0}, "data_format": {"s": "TkhXQw=="}, "use_cudnn_on_gpu": {"b": true}, "fused_ops": {"list": {"s": ["Qmlhc0FkZA=="]}}, "dilations": {"list": {"i": ["1", "1", "1", "1"]}}, "explicit_paddings": {"list": {}}}}, {"name": "StatefulPartitionedCall/model/batch_normalization_11/FusedBatchNorm/Mul", "op": "Mul", "input": ["StatefulPartitionedCall/model/batch_normalization_11/FusedBatchNorm/Scaled", "StatefulPartitionedCall/model/conv2d_8/BiasAdd"], "attr": {"T": {"type": "DT_FLOAT"}}}, {"name": "StatefulPartitionedCall/model/add_13/ArithmeticOptimizer/AddOpsRewrite_Leaf_1_add", "op": "AddN", "input": ["StatefulPartitionedCall/model/batch_normalization_11/FusedBatchNorm/Mul", "StatefulPartitionedCall/model/batch_normalization_9/FusedBatchNorm/Mul"], "attr": {"_grappler:ArithmeticOptimizer:AddOpsRewriteStage": {"b": true}, "T": {"type": "DT_FLOAT"}, "N": {"i": "2"}}}, {"name": "StatefulPartitionedCall/model/add_13/ArithmeticOptimizer/AddOpsRewrite_add", "op": "Add", "input": ["StatefulPartitionedCall/model/add_13/ArithmeticOptimizer/AddOpsRewrite_Leaf_0_add", "StatefulPartitionedCall/model/add_13/ArithmeticOptimizer/AddOpsRewrite_Leaf_1_add"], "attr": {"_grappler:ArithmeticOptimizer:AddOpsRewriteStage": {"b": true}, "T": {"type": "DT_FLOAT"}}}, {"name": "StatefulPartitionedCall/model/leaky_re_lu_5/LeakyRelu", "op": "LeakyRelu", "input": ["StatefulPartitionedCall/model/add_13/ArithmeticOptimizer/AddOpsRewrite_add"], "attr": {"alpha": {"f": 0.1}, "T": {"type": "DT_FLOAT"}}}, {"name": "StatefulPartitionedCall/model/conv2d_transpose/Shape", "op": "Shape", "input": ["StatefulPartitionedCall/model/leaky_re_lu_5/LeakyRelu"], "attr": {"T": {"type": "DT_FLOAT"}, "out_type": {"type": "DT_INT32"}}}, {"name": "StatefulPartitionedCall/model/conv2d_transpose/strided_slice", "op": "StridedSlice", "input": ["StatefulPartitionedCall/model/conv2d_transpose/Shape", "StatefulPartitionedCall/model/conv2d_transpose_4/strided_slice/stack", "StatefulPartitionedCall/model/conv2d_transpose_4/strided_slice/stack_1", "StatefulPartitionedCall/model/conv2d_transpose_4/strided_slice/stack_1"], "attr": {"ellipsis_mask": {"i": "0"}, "new_axis_mask": {"i": "0"}, "begin_mask": {"i": "0"}, "end_mask": {"i": "0"}, "shrink_axis_mask": {"i": "1"}, "Index": {"type": "DT_INT32"}, "T": {"type": "DT_INT32"}}}, {"name": "StatefulPartitionedCall/model/conv2d_transpose/strided_slice_1", "op": "StridedSlice", "input": ["StatefulPartitionedCall/model/conv2d_transpose/Shape", "StatefulPartitionedCall/model/conv2d_transpose_4/strided_slice/stack_1", "StatefulPartitionedCall/model/conv2d_transpose_4/strided_slice_1/stack_1", "StatefulPartitionedCall/model/conv2d_transpose_4/strided_slice/stack_1"], "attr": {"ellipsis_mask": {"i": "0"}, "begin_mask": {"i": "0"}, "Index": {"type": "DT_INT32"}, "new_axis_mask": {"i": "0"}, "end_mask": {"i": "0"}, "T": {"type": "DT_INT32"}, "shrink_axis_mask": {"i": "1"}}}, {"name": "StatefulPartitionedCall/model/conv2d_transpose/strided_slice_2", "op": "StridedSlice", "input": ["StatefulPartitionedCall/model/conv2d_transpose/Shape", "StatefulPartitionedCall/model/conv2d_transpose_4/strided_slice_1/stack_1", "StatefulPartitionedCall/model/conv2d_transpose_4/strided_slice_2/stack_1", "StatefulPartitionedCall/model/conv2d_transpose_4/strided_slice/stack_1"], "attr": {"Index": {"type": "DT_INT32"}, "T": {"type": "DT_INT32"}, "begin_mask": {"i": "0"}, "end_mask": {"i": "0"}, "ellipsis_mask": {"i": "0"}, "shrink_axis_mask": {"i": "1"}, "new_axis_mask": {"i": "0"}}}, {"name": "StatefulPartitionedCall/model/conv2d_transpose/mul", "op": "Mul", "input": ["StatefulPartitionedCall/model/conv2d_transpose/strided_slice_1", "StatefulPartitionedCall/model/conv2d_transpose_4/mul/y"], "attr": {"T": {"type": "DT_INT32"}}}, {"name": "StatefulPartitionedCall/model/conv2d_transpose/mul_1", "op": "Mul", "input": ["StatefulPartitionedCall/model/conv2d_transpose/strided_slice_2", "StatefulPartitionedCall/model/conv2d_transpose_4/mul/y"], "attr": {"T": {"type": "DT_INT32"}}}, {"name": "StatefulPartitionedCall/model/conv2d_transpose/stack", "op": "Pack", "input": ["StatefulPartitionedCall/model/conv2d_transpose/strided_slice", "StatefulPartitionedCall/model/conv2d_transpose/mul", "StatefulPartitionedCall/model/conv2d_transpose/mul_1", "StatefulPartitionedCall/model/conv2d_transpose/stack/3"], "attr": {"N": {"i": "4"}, "axis": {"i": "0"}, "T": {"type": "DT_INT32"}}}, {"name": "StatefulPartitionedCall/model/conv2d_transpose/conv2d_transpose", "op": "Conv2DBackpropInput", "input": ["StatefulPartitionedCall/model/conv2d_transpose/stack", "StatefulPartitionedCall/model/conv2d_transpose/conv2d_transpose/ReadVariableOp", "StatefulPartitionedCall/model/leaky_re_lu_5/LeakyRelu"], "attr": {"dilations": {"list": {"i": ["1", "1", "1", "1"]}}, "use_cudnn_on_gpu": {"b": true}, "data_format": {"s": "TkhXQw=="}, "padding": {"s": "U0FNRQ=="}, "explicit_paddings": {"list": {}}, "T": {"type": "DT_FLOAT"}, "strides": {"list": {"i": ["1", "2", "2", "1"]}}}}, {"name": "StatefulPartitionedCall/model/conv2d_transpose/BiasAdd", "op": "BiasAdd", "input": ["StatefulPartitionedCall/model/conv2d_transpose/conv2d_transpose", "StatefulPartitionedCall/model/conv2d_transpose/BiasAdd/ReadVariableOp"], "attr": {"T": {"type": "DT_FLOAT"}, "data_format": {"s": "TkhXQw=="}}}, {"name": "StatefulPartitionedCall/model/concatenate/concat", "op": "ConcatV2", "input": ["StatefulPartitionedCall/model/conv2d_transpose/BiasAdd", "StatefulPartitionedCall/model/leaky_re_lu/LeakyRelu", "StatefulPartitionedCall/model/concatenate/concat/axis"], "attr": {"T": {"type": "DT_FLOAT"}, "N": {"i": "2"}, "Tidx": {"type": "DT_INT32"}}}, {"name": "StatefulPartitionedCall/model/conv2d_9/BiasAdd", "op": "_FusedConv2D", "input": ["StatefulPartitionedCall/model/concatenate/concat", "StatefulPartitionedCall/model/conv2d_9/Conv2D/ReadVariableOp", "StatefulPartitionedCall/model/conv2d_9/BiasAdd/ReadVariableOp"], "device": "/device:CPU:0", "attr": {"epsilon": {"f": 0.0}, "padding": {"s": "U0FNRQ=="}, "strides": {"list": {"i": ["1", "1", "1", "1"]}}, "use_cudnn_on_gpu": {"b": true}, "num_args": {"i": "1"}, "explicit_paddings": {"list": {}}, "dilations": {"list": {"i": ["1", "1", "1", "1"]}}, "data_format": {"s": "TkhXQw=="}, "fused_ops": {"list": {"s": ["Qmlhc0FkZA=="]}}, "T": {"type": "DT_FLOAT"}}}, {"name": "StatefulPartitionedCall/model/batch_normalization_13/FusedBatchNorm/Mul", "op": "Mul", "input": ["StatefulPartitionedCall/model/batch_normalization_13/FusedBatchNorm/Scaled", "StatefulPartitionedCall/model/conv2d_9/BiasAdd"], "attr": {"T": {"type": "DT_FLOAT"}}}, {"name": "StatefulPartitionedCall/model/leaky_re_lu_6/LeakyRelu", "op": "LeakyRelu", "input": ["StatefulPartitionedCall/model/conv2d_9/BiasAdd"], "attr": {"T": {"type": "DT_FLOAT"}, "alpha": {"f": 0.1}}}, {"name": "StatefulPartitionedCall/model/batch_normalization_12/FusedBatchNorm/Mul", "op": "Mul", "input": ["StatefulPartitionedCall/model/batch_normalization_12/FusedBatchNorm/Scaled", "StatefulPartitionedCall/model/leaky_re_lu_6/LeakyRelu"], "attr": {"T": {"type": "DT_FLOAT"}}}, {"name": "StatefulPartitionedCall/model/batch_normalization_12/FusedBatchNorm", "op": "Add", "input": ["StatefulPartitionedCall/model/batch_normalization_12/FusedBatchNorm/Mul", "StatefulPartitionedCall/model/batch_normalization_12/FusedBatchNorm/Offset"], "attr": {"T": {"type": "DT_FLOAT"}}}, {"name": "StatefulPartitionedCall/model/conv2d_10/BiasAdd", "op": "_FusedConv2D", "input": ["StatefulPartitionedCall/model/batch_normalization_12/FusedBatchNorm", "StatefulPartitionedCall/model/conv2d_10/Conv2D/ReadVariableOp", "StatefulPartitionedCall/model/conv2d_10/BiasAdd/ReadVariableOp"], "device": "/device:CPU:0", "attr": {"epsilon": {"f": 0.0}, "strides": {"list": {"i": ["1", "1", "1", "1"]}}, "dilations": {"list": {"i": ["1", "1", "1", "1"]}}, "num_args": {"i": "1"}, "data_format": {"s": "TkhXQw=="}, "explicit_paddings": {"list": {}}, "padding": {"s": "U0FNRQ=="}, "T": {"type": "DT_FLOAT"}, "use_cudnn_on_gpu": {"b": true}, "fused_ops": {"list": {"s": ["Qmlhc0FkZA=="]}}}}, {"name": "StatefulPartitionedCall/model/batch_normalization_14/FusedBatchNorm/Mul", "op": "Mul", "input": ["StatefulPartitionedCall/model/batch_normalization_14/FusedBatchNorm/Scaled", "StatefulPartitionedCall/model/conv2d_10/BiasAdd"], "attr": {"T": {"type": "DT_FLOAT"}}}, {"name": "StatefulPartitionedCall/model/batch_normalization_14/FusedBatchNorm", "op": "Add", "input": ["StatefulPartitionedCall/model/batch_normalization_14/FusedBatchNorm/Mul", "StatefulPartitionedCall/model/batch_normalization_14/FusedBatchNorm/Offset"], "attr": {"T": {"type": "DT_FLOAT"}}}, {"name": "StatefulPartitionedCall/model/leaky_re_lu_7/LeakyRelu", "op": "LeakyRelu", "input": ["StatefulPartitionedCall/model/batch_normalization_14/FusedBatchNorm"], "attr": {"T": {"type": "DT_FLOAT"}, "alpha": {"f": 0.1}}}, {"name": "StatefulPartitionedCall/model/conv2d_11/BiasAdd", "op": "_FusedConv2D", "input": ["StatefulPartitionedCall/model/leaky_re_lu_7/LeakyRelu", "StatefulPartitionedCall/model/conv2d_11/Conv2D/ReadVariableOp", "StatefulPartitionedCall/model/conv2d_11/BiasAdd/ReadVariableOp"], "device": "/device:CPU:0", "attr": {"use_cudnn_on_gpu": {"b": true}, "T": {"type": "DT_FLOAT"}, "data_format": {"s": "TkhXQw=="}, "num_args": {"i": "1"}, "fused_ops": {"list": {"s": ["Qmlhc0FkZA=="]}}, "padding": {"s": "U0FNRQ=="}, "strides": {"list": {"i": ["1", "1", "1", "1"]}}, "explicit_paddings": {"list": {}}, "epsilon": {"f": 0.0}, "dilations": {"list": {"i": ["1", "1", "1", "1"]}}}}, {"name": "StatefulPartitionedCall/model/batch_normalization_15/FusedBatchNorm/Mul", "op": "Mul", "input": ["StatefulPartitionedCall/model/batch_normalization_15/FusedBatchNorm/Scaled", "StatefulPartitionedCall/model/conv2d_11/BiasAdd"], "attr": {"T": {"type": "DT_FLOAT"}}}, {"name": "StatefulPartitionedCall/model/add_14/ArithmeticOptimizer/AddOpsRewrite_Leaf_1_add", "op": "AddN", "input": ["StatefulPartitionedCall/model/batch_normalization_13/FusedBatchNorm/Mul", "StatefulPartitionedCall/model/batch_normalization_15/FusedBatchNorm/Mul"], "attr": {"_grappler:ArithmeticOptimizer:AddOpsRewriteStage": {"b": true}, "T": {"type": "DT_FLOAT"}, "N": {"i": "2"}}}, {"name": "StatefulPartitionedCall/model/add_14/ArithmeticOptimizer/AddOpsRewrite_add", "op": "Add", "input": ["StatefulPartitionedCall/model/add_14/ArithmeticOptimizer/AddOpsRewrite_Leaf_0_add", "StatefulPartitionedCall/model/add_14/ArithmeticOptimizer/AddOpsRewrite_Leaf_1_add"], "attr": {"T": {"type": "DT_FLOAT"}, "_grappler:ArithmeticOptimizer:AddOpsRewriteStage": {"b": true}}}, {"name": "StatefulPartitionedCall/model/batch_normalization_17/FusedBatchNorm/Mul", "op": "Mul", "input": ["StatefulPartitionedCall/model/add_14/ArithmeticOptimizer/AddOpsRewrite_add", "StatefulPartitionedCall/model/batch_normalization_17/FusedBatchNorm/Scaled"], "attr": {"T": {"type": "DT_FLOAT"}}}, {"name": "StatefulPartitionedCall/model/leaky_re_lu_8/LeakyRelu", "op": "LeakyRelu", "input": ["StatefulPartitionedCall/model/add_14/ArithmeticOptimizer/AddOpsRewrite_add"], "attr": {"alpha": {"f": 0.1}, "T": {"type": "DT_FLOAT"}}}, {"name": "StatefulPartitionedCall/model/batch_normalization_16/FusedBatchNorm/Mul", "op": "Mul", "input": ["StatefulPartitionedCall/model/batch_normalization_16/FusedBatchNorm/Scaled", "StatefulPartitionedCall/model/leaky_re_lu_8/LeakyRelu"], "attr": {"T": {"type": "DT_FLOAT"}}}, {"name": "StatefulPartitionedCall/model/batch_normalization_16/FusedBatchNorm", "op": "Add", "input": ["StatefulPartitionedCall/model/batch_normalization_16/FusedBatchNorm/Mul", "StatefulPartitionedCall/model/batch_normalization_16/FusedBatchNorm/Offset"], "attr": {"T": {"type": "DT_FLOAT"}}}, {"name": "StatefulPartitionedCall/model/conv2d_12/BiasAdd", "op": "_FusedConv2D", "input": ["StatefulPartitionedCall/model/batch_normalization_16/FusedBatchNorm", "StatefulPartitionedCall/model/conv2d_12/Conv2D/ReadVariableOp", "StatefulPartitionedCall/model/conv2d_12/BiasAdd/ReadVariableOp"], "device": "/device:CPU:0", "attr": {"num_args": {"i": "1"}, "dilations": {"list": {"i": ["1", "1", "1", "1"]}}, "epsilon": {"f": 0.0}, "fused_ops": {"list": {"s": ["Qmlhc0FkZA=="]}}, "data_format": {"s": "TkhXQw=="}, "strides": {"list": {"i": ["1", "1", "1", "1"]}}, "explicit_paddings": {"list": {}}, "T": {"type": "DT_FLOAT"}, "use_cudnn_on_gpu": {"b": true}, "padding": {"s": "U0FNRQ=="}}}, {"name": "StatefulPartitionedCall/model/batch_normalization_18/FusedBatchNorm/Mul", "op": "Mul", "input": ["StatefulPartitionedCall/model/batch_normalization_18/FusedBatchNorm/Scaled", "StatefulPartitionedCall/model/conv2d_12/BiasAdd"], "attr": {"T": {"type": "DT_FLOAT"}}}, {"name": "StatefulPartitionedCall/model/batch_normalization_18/FusedBatchNorm", "op": "Add", "input": ["StatefulPartitionedCall/model/batch_normalization_18/FusedBatchNorm/Mul", "StatefulPartitionedCall/model/batch_normalization_18/FusedBatchNorm/Offset"], "attr": {"T": {"type": "DT_FLOAT"}}}, {"name": "StatefulPartitionedCall/model/leaky_re_lu_9/LeakyRelu", "op": "LeakyRelu", "input": ["StatefulPartitionedCall/model/batch_normalization_18/FusedBatchNorm"], "attr": {"T": {"type": "DT_FLOAT"}, "alpha": {"f": 0.1}}}, {"name": "StatefulPartitionedCall/model/conv2d_13/BiasAdd", "op": "_FusedConv2D", "input": ["StatefulPartitionedCall/model/leaky_re_lu_9/LeakyRelu", "StatefulPartitionedCall/model/conv2d_13/Conv2D/ReadVariableOp", "StatefulPartitionedCall/model/conv2d_13/BiasAdd/ReadVariableOp"], "device": "/device:CPU:0", "attr": {"T": {"type": "DT_FLOAT"}, "use_cudnn_on_gpu": {"b": true}, "strides": {"list": {"i": ["1", "1", "1", "1"]}}, "fused_ops": {"list": {"s": ["Qmlhc0FkZA=="]}}, "data_format": {"s": "TkhXQw=="}, "explicit_paddings": {"list": {}}, "num_args": {"i": "1"}, "padding": {"s": "U0FNRQ=="}, "dilations": {"list": {"i": ["1", "1", "1", "1"]}}, "epsilon": {"f": 0.0}}}, {"name": "StatefulPartitionedCall/model/batch_normalization_19/FusedBatchNorm/Mul", "op": "Mul", "input": ["StatefulPartitionedCall/model/batch_normalization_19/FusedBatchNorm/Scaled", "StatefulPartitionedCall/model/conv2d_13/BiasAdd"], "attr": {"T": {"type": "DT_FLOAT"}}}, {"name": "StatefulPartitionedCall/model/add_15/ArithmeticOptimizer/AddOpsRewrite_Leaf_1_add", "op": "AddN", "input": ["StatefulPartitionedCall/model/batch_normalization_17/FusedBatchNorm/Mul", "StatefulPartitionedCall/model/batch_normalization_19/FusedBatchNorm/Mul"], "attr": {"_grappler:ArithmeticOptimizer:AddOpsRewriteStage": {"b": true}, "T": {"type": "DT_FLOAT"}, "N": {"i": "2"}}}, {"name": "StatefulPartitionedCall/model/add_15/ArithmeticOptimizer/AddOpsRewrite_add", "op": "Add", "input": ["StatefulPartitionedCall/model/add_15/ArithmeticOptimizer/AddOpsRewrite_Leaf_0_add", "StatefulPartitionedCall/model/add_15/ArithmeticOptimizer/AddOpsRewrite_Leaf_1_add"], "attr": {"T": {"type": "DT_FLOAT"}, "_grappler:ArithmeticOptimizer:AddOpsRewriteStage": {"b": true}}}, {"name": "StatefulPartitionedCall/model/leaky_re_lu_10/LeakyRelu", "op": "LeakyRelu", "input": ["StatefulPartitionedCall/model/add_15/ArithmeticOptimizer/AddOpsRewrite_add"], "attr": {"T": {"type": "DT_FLOAT"}, "alpha": {"f": 0.1}}}, {"name": "StatefulPartitionedCall/model/conv2d_transpose_1/Shape", "op": "Shape", "input": ["StatefulPartitionedCall/model/leaky_re_lu_10/LeakyRelu"], "attr": {"T": {"type": "DT_FLOAT"}, "out_type": {"type": "DT_INT32"}}}, {"name": "StatefulPartitionedCall/model/conv2d_transpose_1/strided_slice", "op": "StridedSlice", "input": ["StatefulPartitionedCall/model/conv2d_transpose_1/Shape", "StatefulPartitionedCall/model/conv2d_transpose_4/strided_slice/stack", "StatefulPartitionedCall/model/conv2d_transpose_4/strided_slice/stack_1", "StatefulPartitionedCall/model/conv2d_transpose_4/strided_slice/stack_1"], "attr": {"end_mask": {"i": "0"}, "ellipsis_mask": {"i": "0"}, "new_axis_mask": {"i": "0"}, "shrink_axis_mask": {"i": "1"}, "T": {"type": "DT_INT32"}, "begin_mask": {"i": "0"}, "Index": {"type": "DT_INT32"}}}, {"name": "StatefulPartitionedCall/model/conv2d_transpose_1/strided_slice_1", "op": "StridedSlice", "input": ["StatefulPartitionedCall/model/conv2d_transpose_1/Shape", "StatefulPartitionedCall/model/conv2d_transpose_4/strided_slice/stack_1", "StatefulPartitionedCall/model/conv2d_transpose_4/strided_slice_1/stack_1", "StatefulPartitionedCall/model/conv2d_transpose_4/strided_slice/stack_1"], "attr": {"ellipsis_mask": {"i": "0"}, "shrink_axis_mask": {"i": "1"}, "end_mask": {"i": "0"}, "T": {"type": "DT_INT32"}, "Index": {"type": "DT_INT32"}, "begin_mask": {"i": "0"}, "new_axis_mask": {"i": "0"}}}, {"name": "StatefulPartitionedCall/model/conv2d_transpose_1/strided_slice_2", "op": "StridedSlice", "input": ["StatefulPartitionedCall/model/conv2d_transpose_1/Shape", "StatefulPartitionedCall/model/conv2d_transpose_4/strided_slice_1/stack_1", "StatefulPartitionedCall/model/conv2d_transpose_4/strided_slice_2/stack_1", "StatefulPartitionedCall/model/conv2d_transpose_4/strided_slice/stack_1"], "attr": {"end_mask": {"i": "0"}, "new_axis_mask": {"i": "0"}, "Index": {"type": "DT_INT32"}, "shrink_axis_mask": {"i": "1"}, "begin_mask": {"i": "0"}, "T": {"type": "DT_INT32"}, "ellipsis_mask": {"i": "0"}}}, {"name": "StatefulPartitionedCall/model/conv2d_transpose_1/mul", "op": "Mul", "input": ["StatefulPartitionedCall/model/conv2d_transpose_1/strided_slice_1", "StatefulPartitionedCall/model/conv2d_transpose_4/mul/y"], "attr": {"T": {"type": "DT_INT32"}}}, {"name": "StatefulPartitionedCall/model/conv2d_transpose_1/mul_1", "op": "Mul", "input": ["StatefulPartitionedCall/model/conv2d_transpose_1/strided_slice_2", "StatefulPartitionedCall/model/conv2d_transpose_4/mul/y"], "attr": {"T": {"type": "DT_INT32"}}}, {"name": "StatefulPartitionedCall/model/conv2d_transpose_1/stack", "op": "Pack", "input": ["StatefulPartitionedCall/model/conv2d_transpose_1/strided_slice", "StatefulPartitionedCall/model/conv2d_transpose_1/mul", "StatefulPartitionedCall/model/conv2d_transpose_1/mul_1", "StatefulPartitionedCall/model/conv2d_transpose_1/stack/3"], "attr": {"T": {"type": "DT_INT32"}, "axis": {"i": "0"}, "N": {"i": "4"}}}, {"name": "StatefulPartitionedCall/model/conv2d_transpose_1/conv2d_transpose", "op": "Conv2DBackpropInput", "input": ["StatefulPartitionedCall/model/conv2d_transpose_1/stack", "StatefulPartitionedCall/model/conv2d_transpose_1/conv2d_transpose/ReadVariableOp", "StatefulPartitionedCall/model/leaky_re_lu_10/LeakyRelu"], "attr": {"explicit_paddings": {"list": {}}, "strides": {"list": {"i": ["1", "2", "2", "1"]}}, "T": {"type": "DT_FLOAT"}, "use_cudnn_on_gpu": {"b": true}, "data_format": {"s": "TkhXQw=="}, "dilations": {"list": {"i": ["1", "1", "1", "1"]}}, "padding": {"s": "U0FNRQ=="}}}, {"name": "StatefulPartitionedCall/model/conv2d_transpose_1/BiasAdd", "op": "BiasAdd", "input": ["StatefulPartitionedCall/model/conv2d_transpose_1/conv2d_transpose", "StatefulPartitionedCall/model/conv2d_transpose_1/BiasAdd/ReadVariableOp"], "attr": {"data_format": {"s": "TkhXQw=="}, "T": {"type": "DT_FLOAT"}}}, {"name": "StatefulPartitionedCall/model/concatenate_1/concat", "op": "ConcatV2", "input": ["StatefulPartitionedCall/model/conv2d_transpose_1/BiasAdd", "StatefulPartitionedCall/model/block4_sepconv2_bn/FusedBatchNorm", "StatefulPartitionedCall/model/concatenate/concat/axis"], "attr": {"T": {"type": "DT_FLOAT"}, "N": {"i": "2"}, "Tidx": {"type": "DT_INT32"}}}, {"name": "StatefulPartitionedCall/model/conv2d_14/BiasAdd", "op": "_FusedConv2D", "input": ["StatefulPartitionedCall/model/concatenate_1/concat", "StatefulPartitionedCall/model/conv2d_14/Conv2D/ReadVariableOp", "StatefulPartitionedCall/model/conv2d_14/BiasAdd/ReadVariableOp"], "device": "/device:CPU:0", "attr": {"epsilon": {"f": 0.0}, "strides": {"list": {"i": ["1", "1", "1", "1"]}}, "use_cudnn_on_gpu": {"b": true}, "explicit_paddings": {"list": {}}, "T": {"type": "DT_FLOAT"}, "padding": {"s": "U0FNRQ=="}, "num_args": {"i": "1"}, "fused_ops": {"list": {"s": ["Qmlhc0FkZA=="]}}, "data_format": {"s": "TkhXQw=="}, "dilations": {"list": {"i": ["1", "1", "1", "1"]}}}}, {"name": "StatefulPartitionedCall/model/batch_normalization_21/FusedBatchNorm/Mul", "op": "Mul", "input": ["StatefulPartitionedCall/model/batch_normalization_21/FusedBatchNorm/Scaled", "StatefulPartitionedCall/model/conv2d_14/BiasAdd"], "attr": {"T": {"type": "DT_FLOAT"}}}, {"name": "StatefulPartitionedCall/model/leaky_re_lu_11/LeakyRelu", "op": "LeakyRelu", "input": ["StatefulPartitionedCall/model/conv2d_14/BiasAdd"], "attr": {"T": {"type": "DT_FLOAT"}, "alpha": {"f": 0.1}}}, {"name": "StatefulPartitionedCall/model/batch_normalization_20/FusedBatchNorm/Mul", "op": "Mul", "input": ["StatefulPartitionedCall/model/batch_normalization_20/FusedBatchNorm/Scaled", "StatefulPartitionedCall/model/leaky_re_lu_11/LeakyRelu"], "attr": {"T": {"type": "DT_FLOAT"}}}, {"name": "StatefulPartitionedCall/model/batch_normalization_20/FusedBatchNorm", "op": "Add", "input": ["StatefulPartitionedCall/model/batch_normalization_20/FusedBatchNorm/Mul", "StatefulPartitionedCall/model/batch_normalization_20/FusedBatchNorm/Offset"], "attr": {"…
nedCall/model/add_21/ArithmeticOptimizer/AddOpsRewrite_Leaf_1_add"], "attr": {"T": {"type": "DT_FLOAT"}, "_grappler:ArithmeticOptimizer:AddOpsRewriteStage": {"b": true}}}, {"name": "StatefulPartitionedCall/model/leaky_re_lu_25/LeakyRelu", "op": "LeakyRelu", "input": ["StatefulPartitionedCall/model/add_21/ArithmeticOptimizer/AddOpsRewrite_add"], "attr": {"T": {"type": "DT_FLOAT"}, "alpha": {"f": 0.1}}}, {"name": "StatefulPartitionedCall/model/conv2d_transpose_4/Shape", "op": "Shape", "input": ["StatefulPartitionedCall/model/leaky_re_lu_25/LeakyRelu"], "attr": {"T": {"type": "DT_FLOAT"}, "out_type": {"type": "DT_INT32"}}}, {"name": "StatefulPartitionedCall/model/conv2d_transpose_4/strided_slice", "op": "StridedSlice", "input": ["StatefulPartitionedCall/model/conv2d_transpose_4/Shape", "StatefulPartitionedCall/model/conv2d_transpose_4/strided_slice/stack", "StatefulPartitionedCall/model/conv2d_transpose_4/strided_slice/stack_1", "StatefulPartitionedCall/model/conv2d_transpose_4/strided_slice/stack_1"], "attr": {"Index": {"type": "DT_INT32"}, "ellipsis_mask": {"i": "0"}, "T": {"type": "DT_INT32"}, "shrink_axis_mask": {"i": "1"}, "end_mask": {"i": "0"}, "begin_mask": {"i": "0"}, "new_axis_mask": {"i": "0"}}}, {"name": "StatefulPartitionedCall/model/conv2d_transpose_4/strided_slice_1", "op": "StridedSlice", "input": ["StatefulPartitionedCall/model/conv2d_transpose_4/Shape", "StatefulPartitionedCall/model/conv2d_transpose_4/strided_slice/stack_1", "StatefulPartitionedCall/model/conv2d_transpose_4/strided_slice_1/stack_1", "StatefulPartitionedCall/model/conv2d_transpose_4/strided_slice/stack_1"], "attr": {"ellipsis_mask": {"i": "0"}, "Index": {"type": "DT_INT32"}, "begin_mask": {"i": "0"}, "T": {"type": "DT_INT32"}, "shrink_axis_mask": {"i": "1"}, "new_axis_mask": {"i": "0"}, "end_mask": {"i": "0"}}}, {"name": "StatefulPartitionedCall/model/conv2d_transpose_4/strided_slice_2", "op": "StridedSlice", "input": ["StatefulPartitionedCall/model/conv2d_transpose_4/Shape", "StatefulPartitionedCall/model/conv2d_transpose_4/strided_slice_1/stack_1", "StatefulPartitionedCall/model/conv2d_transpose_4/strided_slice_2/stack_1", "StatefulPartitionedCall/model/conv2d_transpose_4/strided_slice/stack_1"], "attr": {"shrink_axis_mask": {"i": "1"}, "begin_mask": {"i": "0"}, "Index": {"type": "DT_INT32"}, "new_axis_mask": {"i": "0"}, "end_mask": {"i": "0"}, "T": {"type": "DT_INT32"}, "ellipsis_mask": {"i": "0"}}}, {"name": "StatefulPartitionedCall/model/conv2d_transpose_4/mul", "op": "Mul", "input": ["StatefulPartitionedCall/model/conv2d_transpose_4/mul/y", "StatefulPartitionedCall/model/conv2d_transpose_4/strided_slice_1"], "attr": {"T": {"type": "DT_INT32"}}}, {"name": "StatefulPartitionedCall/model/conv2d_transpose_4/mul_1", "op": "Mul", "input": ["StatefulPartitionedCall/model/conv2d_transpose_4/mul/y", "StatefulPartitionedCall/model/conv2d_transpose_4/strided_slice_2"], "attr": {"T": {"type": "DT_INT32"}}}, {"name": "StatefulPartitionedCall/model/conv2d_transpose_4/stack", "op": "Pack", "input": ["StatefulPartitionedCall/model/conv2d_transpose_4/strided_slice", "StatefulPartitionedCall/model/conv2d_transpose_4/mul", "StatefulPartitionedCall/model/conv2d_transpose_4/mul_1", "StatefulPartitionedCall/model/conv2d_transpose_4/stack/3"], "attr": {"N": {"i": "4"}, "axis": {"i": "0"}, "T": {"type": "DT_INT32"}}}, {"name": "StatefulPartitionedCall/model/conv2d_transpose_4/conv2d_transpose", "op": "Conv2DBackpropInput", "input": ["StatefulPartitionedCall/model/conv2d_transpose_4/stack", "StatefulPartitionedCall/model/conv2d_transpose_4/conv2d_transpose/ReadVariableOp", "StatefulPartitionedCall/model/leaky_re_lu_25/LeakyRelu"], "attr": {"explicit_paddings": {"list": {}}, "data_format": {"s": "TkhXQw=="}, "T": {"type": "DT_FLOAT"}, "padding": {"s": "U0FNRQ=="}, "strides": {"list": {"i": ["1", "2", "2", "1"]}}, "dilations": {"list": {"i": ["1", "1", "1", "1"]}}, "use_cudnn_on_gpu": {"b": true}}}, {"name": "StatefulPartitionedCall/model/conv2d_transpose_4/BiasAdd", "op": "BiasAdd", "input": ["StatefulPartitionedCall/model/conv2d_transpose_4/conv2d_transpose", "StatefulPartitionedCall/model/conv2d_transpose_4/BiasAdd/ReadVariableOp"], "attr": {"data_format": {"s": "TkhXQw=="}, "T": {"type": "DT_FLOAT"}}}, {"name": "StatefulPartitionedCall/model/conv2d_29/BiasAdd", "op": "_FusedConv2D", "input": ["StatefulPartitionedCall/model/conv2d_transpose_4/BiasAdd", "StatefulPartitionedCall/model/conv2d_29/Conv2D/ReadVariableOp", "StatefulPartitionedCall/model/conv2d_29/BiasAdd/ReadVariableOp"], "device": "/device:CPU:0", "attr": {"use_cudnn_on_gpu": {"b": true}, "data_format": {"s": "TkhXQw=="}, "strides": {"list": {"i": ["1", "1", "1", "1"]}}, "dilations": {"list": {"i": ["1", "1", "1", "1"]}}, "padding": {"s": "U0FNRQ=="}, "epsilon": {"f": 0.0}, "num_args": {"i": "1"}, "T": {"type": "DT_FLOAT"}, "fused_ops": {"list": {"s": ["Qmlhc0FkZA=="]}}, "explicit_paddings": {"list": {}}}}, {"name": "StatefulPartitionedCall/model/batch_normalization_45/FusedBatchNorm/Mul", "op": "Mul", "input": ["StatefulPartitionedCall/model/batch_normalization_45/FusedBatchNorm/Scaled", "StatefulPartitionedCall/model/conv2d_29/BiasAdd"], "attr": {"T": {"type": "DT_FLOAT"}}}, {"name": "StatefulPartitionedCall/model/leaky_re_lu_26/LeakyRelu", "op": "LeakyRelu", "input": ["StatefulPartitionedCall/model/conv2d_29/BiasAdd"], "attr": {"alpha": {"f": 0.1}, "T": {"type": "DT_FLOAT"}}}, {"name": "StatefulPartitionedCall/model/batch_normalization_44/FusedBatchNorm/Mul", "op": "Mul", "input": ["StatefulPartitionedCall/model/batch_normalization_44/FusedBatchNorm/Scaled", "StatefulPartitionedCall/model/leaky_re_lu_26/LeakyRelu"], "attr": {"T": {"type": "DT_FLOAT"}}}, {"name": "StatefulPartitionedCall/model/batch_normalization_44/FusedBatchNorm", "op": "Add", "input": ["StatefulPartitionedCall/model/batch_normalization_44/FusedBatchNorm/Mul", "StatefulPartitionedCall/model/batch_normalization_44/FusedBatchNorm/Offset"], "attr": {"T": {"type": "DT_FLOAT"}}}, {"name": "StatefulPartitionedCall/model/conv2d_30/BiasAdd", "op": "_FusedConv2D", "input": ["StatefulPartitionedCall/model/batch_normalization_44/FusedBatchNorm", "StatefulPartitionedCall/model/conv2d_30/Conv2D/ReadVariableOp", "StatefulPartitionedCall/model/conv2d_30/BiasAdd/ReadVariableOp"], "device": "/device:CPU:0", "attr": {"explicit_paddings": {"list": {}}, "use_cudnn_on_gpu": {"b": true}, "data_format": {"s": "TkhXQw=="}, "dilations": {"list": {"i": ["1", "1", "1", "1"]}}, "fused_ops": {"list": {"s": ["Qmlhc0FkZA=="]}}, "strides": {"list": {"i": ["1", "1", "1", "1"]}}, "T": {"type": "DT_FLOAT"}, "num_args": {"i": "1"}, "padding": {"s": "U0FNRQ=="}, "epsilon": {"f": 0.0}}}, {"name": "StatefulPartitionedCall/model/batch_normalization_46/FusedBatchNorm/Mul", "op": "Mul", "input": ["StatefulPartitionedCall/model/batch_normalization_46/FusedBatchNorm/Scaled", "StatefulPartitionedCall/model/conv2d_30/BiasAdd"], "attr": {"T": {"type": "DT_FLOAT"}}}, {"name": "StatefulPartitionedCall/model/batch_normalization_46/FusedBatchNorm", "op": "Add", "input": ["StatefulPartitionedCall/model/batch_normalization_46/FusedBatchNorm/Mul", "StatefulPartitionedCall/model/batch_normalization_46/FusedBatchNorm/Offset"], "attr": {"T": {"type": "DT_FLOAT"}}}, {"name": "StatefulPartitionedCall/model/leaky_re_lu_27/LeakyRelu", "op": "LeakyRelu", "input": ["StatefulPartitionedCall/model/batch_normalization_46/FusedBatchNorm"], "attr": {"alpha": {"f": 0.1}, "T": {"type": "DT_FLOAT"}}}, {"name": "StatefulPartitionedCall/model/conv2d_31/BiasAdd", "op": "_FusedConv2D", "input": ["StatefulPartitionedCall/model/leaky_re_lu_27/LeakyRelu", "StatefulPartitionedCall/model/conv2d_31/Conv2D/ReadVariableOp", "StatefulPartitionedCall/model/conv2d_31/BiasAdd/ReadVariableOp"], "device": "/device:CPU:0", "attr": {"epsilon": {"f": 0.0}, "use_cudnn_on_gpu": {"b": true}, "explicit_paddings": {"list": {}}, "dilations": {"list": {"i": ["1", "1", "1", "1"]}}, "data_format": {"s": "TkhXQw=="}, "num_args": {"i": "1"}, "fused_ops": {"list": {"s": ["Qmlhc0FkZA=="]}}, "padding": {"s": "U0FNRQ=="}, "strides": {"list": {"i": ["1", "1", "1", "1"]}}, "T": {"type": "DT_FLOAT"}}}, {"name": "StatefulPartitionedCall/model/batch_normalization_47/FusedBatchNorm/Mul", "op": "Mul", "input": ["StatefulPartitionedCall/model/batch_normalization_47/FusedBatchNorm/Scaled", "StatefulPartitionedCall/model/conv2d_31/BiasAdd"], "attr": {"T": {"type": "DT_FLOAT"}}}, {"name": "StatefulPartitionedCall/model/add_22/ArithmeticOptimizer/AddOpsRewrite_Leaf_1_add", "op": "AddN", "input": ["StatefulPartitionedCall/model/batch_normalization_45/FusedBatchNorm/Mul", "StatefulPartitionedCall/model/batch_normalization_47/FusedBatchNorm/Mul"], "attr": {"N": {"i": "2"}, "_grappler:ArithmeticOptimizer:AddOpsRewriteStage": {"b": true}, "T": {"type": "DT_FLOAT"}}}, {"name": "StatefulPartitionedCall/model/add_22/ArithmeticOptimizer/AddOpsRewrite_add", "op": "Add", "input": ["StatefulPartitionedCall/model/add_22/ArithmeticOptimizer/AddOpsRewrite_Leaf_0_add", "StatefulPartitionedCall/model/add_22/ArithmeticOptimizer/AddOpsRewrite_Leaf_1_add"], "attr": {"T": {"type": "DT_FLOAT"}, "_grappler:ArithmeticOptimizer:AddOpsRewriteStage": {"b": true}}}, {"name": "StatefulPartitionedCall/model/batch_normalization_49/FusedBatchNorm/Mul", "op": "Mul", "input": ["StatefulPartitionedCall/model/add_22/ArithmeticOptimizer/AddOpsRewrite_add", "StatefulPartitionedCall/model/batch_normalization_49/FusedBatchNorm/Scaled"], "attr": {"T": {"type": "DT_FLOAT"}}}, {"name": "StatefulPartitionedCall/model/leaky_re_lu_28/LeakyRelu", "op": "LeakyRelu", "input": ["StatefulPartitionedCall/model/add_22/ArithmeticOptimizer/AddOpsRewrite_add"], "attr": {"alpha": {"f": 0.1}, "T": {"type": "DT_FLOAT"}}}, {"name": "StatefulPartitionedCall/model/batch_normalization_48/FusedBatchNorm/Mul", "op": "Mul", "input": ["StatefulPartitionedCall/model/batch_normalization_48/FusedBatchNorm/Scaled", "StatefulPartitionedCall/model/leaky_re_lu_28/LeakyRelu"], "attr": {"T": {"type": "DT_FLOAT"}}}, {"name": "StatefulPartitionedCall/model/batch_normalization_48/FusedBatchNorm", "op": "Add", "input": ["StatefulPartitionedCall/model/batch_normalization_48/FusedBatchNorm/Mul", "StatefulPartitionedCall/model/batch_normalization_48/FusedBatchNorm/Offset"], "attr": {"T": {"type": "DT_FLOAT"}}}, {"name": "StatefulPartitionedCall/model/conv2d_32/BiasAdd", "op": "_FusedConv2D", "input": ["StatefulPartitionedCall/model/batch_normalization_48/FusedBatchNorm", "StatefulPartitionedCall/model/conv2d_32/Conv2D/ReadVariableOp", "StatefulPartitionedCall/model/conv2d_32/BiasAdd/ReadVariableOp"], "device": "/device:CPU:0", "attr": {"use_cudnn_on_gpu": {"b": true}, "T": {"type": "DT_FLOAT"}, "data_format": {"s": "TkhXQw=="}, "padding": {"s": "U0FNRQ=="}, "dilations": {"list": {"i": ["1", "1", "1", "1"]}}, "explicit_paddings": {"list": {}}, "fused_ops": {"list": {"s": ["Qmlhc0FkZA=="]}}, "num_args": {"i": "1"}, "epsilon": {"f": 0.0}, "strides": {"list": {"i": ["1", "1", "1", "1"]}}}}, {"name": "StatefulPartitionedCall/model/batch_normalization_50/FusedBatchNorm/Mul", "op": "Mul", "input": ["StatefulPartitionedCall/model/batch_normalization_50/FusedBatchNorm/Scaled", "StatefulPartitionedCall/model/conv2d_32/BiasAdd"], "attr": {"T": {"type": "DT_FLOAT"}}}, {"name": "StatefulPartitionedCall/model/batch_normalization_50/FusedBatchNorm", "op": "Add", "input": ["StatefulPartitionedCall/model/batch_normalization_50/FusedBatchNorm/Mul", "StatefulPartitionedCall/model/batch_normalization_50/FusedBatchNorm/Offset"], "attr": {"T": {"type": "DT_FLOAT"}}}, {"name": "StatefulPartitionedCall/model/leaky_re_lu_29/LeakyRelu", "op": "LeakyRelu", "input": ["StatefulPartitionedCall/model/batch_normalization_50/FusedBatchNorm"], "attr": {"T": {"type": "DT_FLOAT"}, "alpha": {"f": 0.1}}}, {"name": "StatefulPartitionedCall/model/conv2d_33/BiasAdd", "op": "_FusedConv2D", "input": ["StatefulPartitionedCall/model/leaky_re_lu_29/LeakyRelu", "StatefulPartitionedCall/model/conv2d_33/Conv2D/ReadVariableOp", "StatefulPartitionedCall/model/conv2d_33/BiasAdd/ReadVariableOp"], "device": "/device:CPU:0", "attr": {"dilations": {"list": {"i": ["1", "1", "1", "1"]}}, "T": {"type": "DT_FLOAT"}, "explicit_paddings": {"list": {}}, "epsilon": {"f": 0.0}, "strides": {"list": {"i": ["1", "1", "1", "1"]}}, "data_format": {"s": "TkhXQw=="}, "use_cudnn_on_gpu": {"b": true}, "padding": {"s": "U0FNRQ=="}, "num_args": {"i": "1"}, "fused_ops": {"list": {"s": ["Qmlhc0FkZA=="]}}}}, {"name": "StatefulPartitionedCall/model/batch_normalization_51/FusedBatchNorm/Mul", "op": "Mul", "input": ["StatefulPartitionedCall/model/batch_normalization_51/FusedBatchNorm/Scaled", "StatefulPartitionedCall/model/conv2d_33/BiasAdd"], "attr": {"T": {"type": "DT_FLOAT"}}}, {"name": "StatefulPartitionedCall/model/add_23/ArithmeticOptimizer/AddOpsRewrite_Leaf_1_add", "op": "AddN", "input": ["StatefulPartitionedCall/model/batch_normalization_49/FusedBatchNorm/Mul", "StatefulPartitionedCall/model/batch_normalization_51/FusedBatchNorm/Mul"], "attr": {"T": {"type": "DT_FLOAT"}, "N": {"i": "2"}, "_grappler:ArithmeticOptimizer:AddOpsRewriteStage": {"b": true}}}, {"name": "StatefulPartitionedCall/model/add_23/ArithmeticOptimizer/AddOpsRewrite_add", "op": "Add", "input": ["StatefulPartitionedCall/model/add_23/ArithmeticOptimizer/AddOpsRewrite_Leaf_0_add", "StatefulPartitionedCall/model/add_23/ArithmeticOptimizer/AddOpsRewrite_Leaf_1_add"], "attr": {"_grappler:ArithmeticOptimizer:AddOpsRewriteStage": {"b": true}, "T": {"type": "DT_FLOAT"}}}, {"name": "StatefulPartitionedCall/model/leaky_re_lu_30/LeakyRelu", "op": "LeakyRelu", "input": ["StatefulPartitionedCall/model/add_23/ArithmeticOptimizer/AddOpsRewrite_add"], "attr": {"T": {"type": "DT_FLOAT"}, "alpha": {"f": 0.1}}}, {"name": "StatefulPartitionedCall/model/conv2d_34/BiasAdd", "op": "_FusedConv2D", "input": ["StatefulPartitionedCall/model/leaky_re_lu_30/LeakyRelu", "StatefulPartitionedCall/model/conv2d_34/Conv2D/ReadVariableOp", "StatefulPartitionedCall/model/conv2d_34/BiasAdd/ReadVariableOp"], "device": "/device:CPU:0", "attr": {"padding": {"s": "U0FNRQ=="}, "data_format": {"s": "TkhXQw=="}, "epsilon": {"f": 0.0}, "fused_ops": {"list": {"s": ["Qmlhc0FkZA=="]}}, "strides": {"list": {"i": ["1", "1", "1", "1"]}}, "T": {"type": "DT_FLOAT"}, "dilations": {"list": {"i": ["1", "1", "1", "1"]}}, "explicit_paddings": {"list": {}}, "use_cudnn_on_gpu": {"b": true}, "num_args": {"i": "1"}}}, {"name": "StatefulPartitionedCall/model/conv2d_34/Sigmoid", "op": "Sigmoid", "input": ["StatefulPartitionedCall/model/conv2d_34/BiasAdd"], "attr": {"T": {"type": "DT_FLOAT"}}}, {"name": "Identity", "op": "Identity", "input": ["StatefulPartitionedCall/model/conv2d_34/Sigmoid"], "attr": {"T": {"type": "DT_FLOAT"}}}], "library": {}, "versions": {}}, "weightsManifest": [{"paths": ["group1-shard1of37.bin", "group1-shard2of37.bin", "group1-shard3of37.bin", "group1-shard4of37.bin", "group1-shard5of37.bin", "group1-shard6of37.bin", "group1-shard7of37.bin", "group1-shard8of37.bin", "group1-shard9of37.bin", "group1-shard10of37.bin", "group1-shard11of37.bin", "group1-shard12of37.bin", "group1-shard13of37.bin", "group1-shard14of37.bin", "group1-shard15of37.bin", "group1-shard16of37.bin", "group1-shard17of37.bin", "group1-shard18of37.bin", "group1-shard19of37.bin", "group1-shard20of37.bin", "group1-shard21of37.bin", "group1-shard22of37.bin", "group1-shard23of37.bin", "group1-shard24of37.bin", "group1-shard25of37.bin", "group1-shard26of37.bin", "group1-shard27of37.bin", "group1-shard28of37.bin", "group1-shard29of37.bin", "group1-shard30of37.bin", "group1-shard31of37.bin", "group1-shard32of37.bin", "group1-shard33of37.bin", "group1-shard34of37.bin", "group1-shard35of37.bin", "group1-shard36of37.bin", "group1-shard37of37.bin"], "weights": [{"name": "StatefulPartitionedCall/model/block1_conv1/Conv2D/ReadVariableOp", "shape": [3, 3, 3, 32], "dtype": "float32"}, {"name": "StatefulPartitionedCall/model/block1_conv1/Conv2D_bn_offset", "shape": [32], "dtype": "float32"}, {"name": "StatefulPartitionedCall/model/block1_conv2/Conv2D/ReadVariableOp", "shape": [3, 3, 32, 64], "dtype": "float32"}, {"name": "StatefulPartitionedCall/model/block1_conv2/Conv2D_bn_offset", "shape": [64], "dtype": "float32"}, {"name": "StatefulPartitionedCall/model/conv2d/Conv2D/ReadVariableOp", "shape": [1, 1, 64, 128], "dtype": "float32"}, {"name": "StatefulPartitionedCall/model/conv2d/Conv2D_bn_offset", "shape": [128], "dtype": "float32"}, {"name": "StatefulPartitionedCall/model/block2_sepconv1/separable_conv2d/ReadVariableOp_1", "shape": [1, 1, 64, 128], "dtype": "float32"}, {"name": "StatefulPartitionedCall/model/block2_sepconv1/separable_conv2d_bn_offset", "shape": [128], "dtype": "float32"}, {"name": "StatefulPartitionedCall/model/block2_sepconv2/separable_conv2d/ReadVariableOp_1", "shape": [1, 1, 128, 128], "dtype": "float32"}, {"name": "StatefulPartitionedCall/model/block2_sepconv2/separable_conv2d_bn_offset", "shape": [128], "dtype": "float32"}, {"name": "StatefulPartitionedCall/model/conv2d_1/Conv2D/ReadVariableOp", "shape": [1, 1, 128, 256], "dtype": "float32"}, {"name": "StatefulPartitionedCall/model/conv2d_1/Conv2D_bn_offset", "shape": [256], "dtype": "float32"}, {"name": "StatefulPartitionedCall/model/block3_sepconv1/separable_conv2d/ReadVariableOp_1", "shape": [1, 1, 128, 256], "dtype": "float32"}, {"name": "StatefulPartitionedCall/model/block3_sepconv1/separable_conv2d_bn_offset", "shape": [256], "dtype": "float32"}, {"name": "StatefulPartitionedCall/model/block3_sepconv2/separable_conv2d/ReadVariableOp_1", "shape": [1, 1, 256, 256], "dtype": "float32"}, {"name": "StatefulPartitionedCall/model/block3_sepconv2/separable_conv2d_bn_offset", "shape": [256], "dtype": "float32"}, {"name": "StatefulPartitionedCall/model/conv2d_2/Conv2D/ReadVariableOp", "shape": [1, 1, 256, 728], "dtype": "float32"}, {"name": "StatefulPartitionedCall/model/conv2d_2/Conv2D_bn_offset", "shape": [728], "dtype": "float32"}, {"name": "StatefulPartitionedCall/model/block4_sepconv1/separable_conv2d/ReadVariableOp_1", "shape": [1, 1, 256, 728], "dtype": "float32"}, {"name": "StatefulPartitionedCall/model/block4_sepconv1/separable_conv2d_bn_offset", "shape": [728], "dtype": "float32"}, {"name": "StatefulPartitionedCall/model/block4_sepconv2/separable_conv2d/ReadVariableOp_1", "shape": [1, 1, 728, 728], "dtype": "float32"}, {"name": "StatefulPartitionedCall/model/block4_sepconv2/separable_conv2d_bn_offset", "shape": [728], "dtype": "float32"}, {"name": "StatefulPartitionedCall/model/block5_sepconv1/separable_conv2d/ReadVariableOp_1", "shape": [1, 1, 728, 728], "dtype": "float32"}, {"name": "StatefulPartitionedCall/model/block5_sepconv1/separable_conv2d_bn_offset", "shape": [728], "dtype": "float32"}, {"name": "StatefulPartitionedCall/model/block5_sepconv2/separable_conv2d/ReadVariableOp_1", "shape": [1, 1, 728, 728], "dtype": "float32"}, {"name": "StatefulPartitionedCall/model/block5_sepconv2/separable_conv2d_bn_offset", "shape": [728], "dtype": "float32"}, {"name": "StatefulPartitionedCall/model/block5_sepconv3/separable_conv2d/ReadVariableOp_1", "shape": [1, 1, 728, 728], "dtype": "float32"}, {"name": "StatefulPartitionedCall/model/block5_sepconv3/separable_conv2d_bn_offset", "shape": [728], "dtype": "float32"}, {"name": "StatefulPartitionedCall/model/block6_sepconv1/separable_conv2d/ReadVariableOp_1", "shape": [1, 1, 728, 728], "dtype": "float32"}, {"name": "StatefulPartitionedCall/model/block6_sepconv1/separable_conv2d_bn_offset", "shape": [728], "dtype": "float32"}, {"name": "StatefulPartitionedCall/model/block6_sepconv2/separable_conv2d/ReadVariableOp_1", "shape": [1, 1, 728, 728], "dtype": "float32"}, {"name": "StatefulPartitionedCall/model/block6_sepconv2/separable_conv2d_bn_offset", "shape": [728], "dtype": "float32"}, {"name": "StatefulPartitionedCall/model/block6_sepconv3/separable_conv2d/ReadVariableOp_1", "shape": [1, 1, 728, 728], "dtype": "float32"}, {"name": "StatefulPartitionedCall/model/block6_sepconv3/separable_conv2d_bn_offset", "shape": [728], "dtype": "float32"}, {"name": "StatefulPartitionedCall/model/block7_sepconv1/separable_conv2d/ReadVariableOp_1", "shape": [1, 1, 728, 728], "dtype": "float32"}, {"name": "StatefulPartitionedCall/model/block7_sepconv1/separable_conv2d_bn_offset", "shape": [728], "dtype": "float32"}, {"name": "StatefulPartitionedCall/model/block7_sepconv2/separable_conv2d/ReadVariableOp_1", "shape": [1, 1, 728, 728], "dtype": "float32"}, {"name": "StatefulPartitionedCall/model/block7_sepconv2/separable_conv2d_bn_offset", "shape": [728], "dtype": "float32"}, {"name": "StatefulPartitionedCall/model/block7_sepconv3/separable_conv2d/ReadVariableOp_1", "shape": [1, 1, 728, 728], "dtype": "float32"}, {"name": "StatefulPartitionedCall/model/block7_sepconv3/separable_conv2d_bn_offset", "shape": [728], "dtype": "float32"}, {"name": "StatefulPartitionedCall/model/block8_sepconv1/separable_conv2d/ReadVariableOp_1", "shape": [1, 1, 728, 728], "dtype": "float32"}, {"name": "StatefulPartitionedCall/model/block8_sepconv1/separable_conv2d_bn_offset", "shape": [728], "dtype": "float32"}, {"name": "StatefulPartitionedCall/model/block8_sepconv2/separable_conv2d/ReadVariableOp_1", "shape": [1, 1, 728, 728], "dtype": "float32"}, {"name": "StatefulPartitionedCall/model/block8_sepconv2/separable_conv2d_bn_offset", "shape": [728], "dtype": "float32"}, {"name": "StatefulPartitionedCall/model/block8_sepconv3/separable_conv2d/ReadVariableOp_1", "shape": [1, 1, 728, 728], "dtype": "float32"}, {"name": "StatefulPartitionedCall/model/block8_sepconv3/separable_conv2d_bn_offset", "shape": [728], "dtype": "float32"}, {"name": "StatefulPartitionedCall/model/block9_sepconv1/separable_conv2d/ReadVariableOp_1", "shape": [1, 1, 728, 728], "dtype": "float32"}, {"name": "StatefulPartitionedCall/model/block9_sepconv1/separable_conv2d_bn_offset", "shape": [728], "dtype": "float32"}, {"name": "StatefulPartitionedCall/model/block9_sepconv2/separable_conv2d/ReadVariableOp_1", "shape": [1, 1, 728, 728], "dtype": "float32"}, {"name": "StatefulPartitionedCall/model/block9_sepconv2/separable_conv2d_bn_offset", "shape": [728], "dtype": "float32"}, {"name": "StatefulPartitionedCall/model/block9_sepconv3/separable_conv2d/ReadVariableOp_1", "shape": [1, 1, 728, 728], "dtype": "float32"}, {"name": "StatefulPartitionedCall/model/block9_sepconv3/separable_conv2d_bn_offset", "shape": [728], "dtype": "float32"}, {"name": "StatefulPartitionedCall/model/block10_sepconv1/separable_conv2d/ReadVariableOp_1", "shape": [1, 1, 728, 728], "dtype": "float32"}, {"name": "StatefulPartitionedCall/model/block10_sepconv1/separable_conv2d_bn_offset", "shape": [728], "dtype": "float32"}, {"name": "StatefulPartitionedCall/model/block10_sepconv2/separable_conv2d/ReadVariableOp_1", "shape": [1, 1, 728, 728], "dtype": "float32"}, {"name": "StatefulPartitionedCall/model/block10_sepconv2/separable_conv2d_bn_offset", "shape": [728], "dtype": "float32"}, {"name": "StatefulPartitionedCall/model/block10_sepconv3/separable_conv2d/ReadVariableOp_1", "shape": [1, 1, 728, 728], "dtype": "float32"}, {"name": "StatefulPartitionedCall/model/block10_sepconv3/separable_conv2d_bn_offset", "shape": [728], "dtype": "float32"}, {"name": "StatefulPartitionedCall/model/block11_sepconv1/separable_conv2d/ReadVariableOp_1", "shape": [1, 1, 728, 728], "dtype": "float32"}, {"name": "StatefulPartitionedCall/model/block11_sepconv1/separable_conv2d_bn_offset", "shape": [728], "dtype": "float32"}, {"name": "StatefulPartitionedCall/model/block11_sepconv2/separable_conv2d/ReadVariableOp_1", "shape": [1, 1, 728, 728], "dtype": "float32"}, {"name": "StatefulPartitionedCall/model/block11_sepconv2/separable_conv2d_bn_offset", "shape": [728], "dtype": "float32"}, {"name": "StatefulPartitionedCall/model/block11_sepconv3/separable_conv2d/ReadVariableOp_1", "shape": [1, 1, 728, 728], "dtype": "float32"}, {"name": "StatefulPartitionedCall/model/block11_sepconv3/separable_conv2d_bn_offset", "shape": [728], "dtype": "float32"}, {"name": "StatefulPartitionedCall/model/block12_sepconv1/separable_conv2d/ReadVariableOp_1", "shape": [1, 1, 728, 728], "dtype": "float32"}, {"name": "StatefulPartitionedCall/model/block12_sepconv1/separable_conv2d_bn_offset", "shape": [728], "dtype": "float32"}, {"name": "StatefulPartitionedCall/model/block12_sepconv2/separable_conv2d/ReadVariableOp_1", "shape": [1, 1, 728, 728], "dtype": "float32"}, {"name": "StatefulPartitionedCall/model/block12_sepconv2/separable_conv2d_bn_offset", "shape": [728], "dtype": "float32"}, {"name": "StatefulPartitionedCall/model/block12_sepconv3/separable_conv2d/ReadVariableOp_1", "shape": [1, 1, 728, 728], "dtype": "float32"}, {"name": "StatefulPartitionedCall/model/block12_sepconv3/separable_conv2d_bn_offset", "shape": [728], "dtype": "float32"}, {"name": "StatefulPartitionedCall/model/block13_sepconv1/separable_conv2d/ReadVariableOp_1", "shape": [1, 1, 728, 728], "dtype": "float32"}, {"name": "StatefulPartitionedCall/model/block13_sepconv1/separable_conv2d_bn_offset", "shape": [728], "dtype": "float32"}, {"name": "StatefulPartitionedCall/model/block13_sepconv2/separable_conv2d/ReadVariableOp_1", "shape": [1, 1, 728, 1024], "dtype": "float32"}, {"name": "StatefulPartitionedCall/model/block13_sepconv2/separable_conv2d_bn_offset", "shape": [1024], "dtype": "float32"}, {"name": "StatefulPartitionedCall/model/add_12/ArithmeticOptimizer/AddOpsRewrite_Leaf_0_add", "shape": [512], "dtype": "float32"}, {"name": "StatefulPartitionedCall/model/add_13/ArithmeticOptimizer/AddOpsRewrite_Leaf_0_add", "shape": [512], "dtype": "float32"}, {"name": "StatefulPartitionedCall/model/add_14/ArithmeticOptimizer/AddOpsRewrite_Leaf_0_add", "shape": [256], "dtype": "float32"}, {"name": "StatefulPartitionedCall/model/add_15/ArithmeticOptimizer/AddOpsRewrite_Leaf_0_add", "shape": [256], "dtype": "float32"}, {"name": "StatefulPartitionedCall/model/add_16/ArithmeticOptimizer/AddOpsRewrite_Leaf_0_add", "shape": [128], "dtype": "float32"}, {"name": "StatefulPartitionedCall/model/add_17/ArithmeticOptimizer/AddOpsRewrite_Leaf_0_add", "shape": [128], "dtype": "float32"}, {"name": "StatefulPartitionedCall/model/add_18/ArithmeticOptimizer/AddOpsRewrite_Leaf_0_add", "shape": [64], "dtype": "float32"}, {"name": "StatefulPartitionedCall/model/add_19/ArithmeticOptimizer/AddOpsRewrite_Leaf_0_add", "shape": [64], "dtype": "float32"}, {"name": "StatefulPartitionedCall/model/add_20/ArithmeticOptimizer/AddOpsRewrite_Leaf_0_add", "shape": [32], "dtype": "float32"}, {"name": "StatefulPartitionedCall/model/add_21/ArithmeticOptimizer/AddOpsRewrite_Leaf_0_add", "shape": [32], "dtype": "float32"}, {"name": "StatefulPartitionedCall/model/add_22/ArithmeticOptimizer/AddOpsRewrite_Leaf_0_add", "shape": [16], "dtype": "float32"}, {"name": "StatefulPartitionedCall/model/add_23/ArithmeticOptimizer/AddOpsRewrite_Leaf_0_add", "shape": [16], "dtype": "float32"}, {"name": "StatefulPartitionedCall/model/conv2d_transpose_4/stack/3", "shape": [], "dtype": "int32"}, {"name": "StatefulPartitionedCall/model/conv2d_transpose_4/conv2d_transpose/ReadVariableOp", "shape": [3, 3, 16, 32], "dtype": "float32"}, {"name": "StatefulPartitionedCall/model/conv2d_transpose_3/stack/3", "shape": [], "dtype": "int32"}, {"name": "StatefulPartitionedCall/model/conv2d_transpose_3/conv2d_transpose/ReadVariableOp", "shape": [3, 3, 32, 64], "dtype": "float32"}, {"name": "StatefulPartitionedCall/model/conv2d_transpose_2/stack/3", "shape": [], "dtype": "int32"}, {"name": "StatefulPartitionedCall/model/conv2d_transpose_2/conv2d_transpose/ReadVariableOp", "shape": [3, 3, 64, 128], "dtype": "float32"}, {"name": "StatefulPartitionedCall/model/conv2d_transpose_1/stack/3", "shape": [], "dtype": "int32"}, {"name": "StatefulPartitionedCall/model/conv2d_transpose_1/conv2d_transpose/ReadVariableOp", "shape": [3, 3, 128, 256], "dtype": "float32"}, {"name": "StatefulPartitionedCall/model/conv2d_transpose_4/strided_slice/stack", "shape": [1], "dtype": "int32"}, {"name": "StatefulPartitionedCall/model/conv2d_transpose_4/strided_slice_1/stack_1", "shape": [1], "dtype": "int32"}, {"name": "StatefulPartitionedCall/model/conv2d_transpose_4/strided_slice_2/stack_1", "shape": [1], "dtype": "int32"}, {"name": "StatefulPartitionedCall/model/conv2d_transpose_4/strided_slice/stack_1", "shape": [1], "dtype": "int32"}, {"name": "StatefulPartitionedCall/model/conv2d_transpose_4/mul/y", "shape": [], "dtype": "int32"}, {"name": "StatefulPartitionedCall/model/conv2d_transpose/stack/3", "shape": [], "dtype": "int32"}, {"name": "StatefulPartitionedCall/model/conv2d_transpose/conv2d_transpose/ReadVariableOp", "shape": [3, 3, 256, 512], "dtype": "float32"}, {"name": "StatefulPartitionedCall/model/conv2d_7/Conv2D/ReadVariableOp", "shape": [3, 3, 512, 512], "dtype": "float32"}, {"name": "StatefulPartitionedCall/model/conv2d_7/BiasAdd/ReadVariableOp", "shape": [512], "dtype": "float32"}, {"name": "StatefulPartitionedCall/model/conv2d_8/Conv2D/ReadVariableOp", "shape": [3, 3, 512, 512], "dtype": "float32"}, {"name": "StatefulPartitionedCall/model/conv2d_8/BiasAdd/ReadVariableOp", "shape": [512], "dtype": "float32"}, {"name": "StatefulPartitionedCall/model/conv2d_4/Conv2D/ReadVariableOp", "shape": [3, 3, 1024, 512], "dtype": "float32"}, {"name": "StatefulPartitionedCall/model/conv2d_4/BiasAdd/ReadVariableOp", "shape": [512], "dtype": "float32"}, {"name": "StatefulPartitionedCall/model/conv2d_5/Conv2D/ReadVariableOp", "shape": [3, 3, 512, 512], "dtype": "float32"}, {"name": "StatefulPartitionedCall/model/conv2d_5/BiasAdd/ReadVariableOp", "shape": [512], "dtype": "float32"}, {"name": "StatefulPartitionedCall/model/conv2d_6/Conv2D/ReadVariableOp", "shape": [3, 3, 512, 512], "dtype": "float32"}, {"name": "StatefulPartitionedCall/model/conv2d_6/BiasAdd/ReadVariableOp", "shape": [512], "dtype": "float32"}, {"name": "StatefulPartitionedCall/model/conv2d_transpose/BiasAdd/ReadVariableOp", "shape": [256], "dtype": "float32"}, {"name": "StatefulPartitionedCall/model/block5_sepconv1/separable_conv2d/ReadVariableOp", "shape": [3, 3, 728, 1], "dtype": "float32"}, {"name": "StatefulPartitionedCall/model/block5_sepconv2/separable_conv2d/ReadVariableOp", "shape": [3, 3, 728, 1], "dtype": "float32"}, {"name": "StatefulPartitionedCall/model/block5_sepconv3/separable_conv2d/ReadVariableOp", "shape": [3, 3, 728, 1], "dtype": "float32"}, {"name": "StatefulPartitionedCall/model/block6_sepconv1/separable_conv2d/ReadVariableOp", "shape": [3, 3, 728, 1], "dtype": "float32"}, {"name": "StatefulPartitionedCall/model/block6_sepconv2/separable_conv2d/ReadVariableOp", "shape": [3, 3, 728, 1], "dtype": "float32"}, {"name": "StatefulPartitionedCall/model/block6_sepconv3/separable_conv2d/ReadVariableOp", "shape": [3, 3, 728, 1], "dtype": "float32"}, {"name": "StatefulPartitionedCall/model/block7_sepconv1/separable_conv2d/ReadVariableOp", "shape": [3, 3, 728, 1], "dtype": "float32"}, {"name": "StatefulPartitionedCall/model/block7_sepconv2/separable_conv2d/ReadVariableOp", "shape": [3, 3, 728, 1], "dtype": "float32"}, {"name": "StatefulPartitionedCall/model/block7_sepconv3/separable_conv2d/ReadVariableOp", "shape": [3, 3, 728, 1], "dtype": "float32"}, {"name": "StatefulPartitionedCall/model/block8_sepconv1/separable_conv2d/ReadVariableOp", "shape": [3, 3, 728, 1], "dtype": "float32"}, {"name": "StatefulPartitionedCall/model/block8_sepconv2/separable_conv2d/ReadVariableOp", "shape": [3, 3, 728, 1], "dtype": "float32"}, {"name": "StatefulPartitionedCall/model/block8_sepconv3/separable_conv2d/ReadVariableOp", "shape": [3, 3, 728, 1], "dtype": "float32"}, {"name": "StatefulPartitionedCall/model/block9_sepconv1/separable_conv2d/ReadVariableOp", "shape": [3, 3, 728, 1], "dtype": "float32"}, {"name": "StatefulPartitionedCall/model/block9_sepconv2/separable_conv2d/ReadVariableOp", "shape": [3, 3, 728, 1], "dtype": "float32"}, {"name": "StatefulPartitionedCall/model/block9_sepconv3/separable_conv2d/ReadVariableOp", "shape": [3, 3, 728, 1], "dtype": "float32"}, {"name": "StatefulPartitionedCall/model/block10_sepconv1/separable_conv2d/ReadVariableOp", "shape": [3, 3, 728, 1], "dtype": "float32"}, {"name": "StatefulPartitionedCall/model/block10_sepconv2/separable_conv2d/ReadVariableOp", "shape": [3, 3, 728, 1], "dtype": "float32"}, {"name": "StatefulPartitionedCall/model/block10_sepconv3/separable_conv2d/ReadVariableOp", "shape": [3, 3, 728, 1], "dtype": "float32"}, {"name": "StatefulPartitionedCall/model/block11_sepconv1/separable_conv2d/ReadVariableOp", "shape": [3, 3, 728, 1], "dtype": "float32"}, {"name": "StatefulPartitionedCall/model/block11_sepconv2/separable_conv2d/ReadVariableOp", "shape": [3, 3, 728, 1], "dtype": "float32"}, {"name": "StatefulPartitionedCall/model/block11_sepconv3/separable_conv2d/ReadVariableOp", "shape": [3, 3, 728, 1], "dtype": "float32"}, {"name": "StatefulPartitionedCall/model/block12_sepconv1/separable_conv2d/ReadVariableOp", "shape": [3, 3, 728, 1], "dtype": "float32"}, {"name": "StatefulPartitionedCall/model/block12_sepconv2/separable_conv2d/ReadVariableOp", "shape": [3, 3, 728, 1], "dtype": "float32"}, {"name": "StatefulPartitionedCall/model/block12_sepconv3/separable_conv2d/ReadVariableOp", "shape": [3, 3, 728, 1], "dtype": "float32"}, {"name": "StatefulPartitionedCall/model/block13_sepconv1/separable_conv2d/ReadVariableOp", "shape": [3, 3, 728, 1], "dtype": "float32"}, {"name": "StatefulPartitionedCall/model/block13_sepconv2/separable_conv2d/ReadVariableOp", "shape": [3, 3, 728, 1], "dtype": "float32"}, {"name": "StatefulPartitionedCall/model/conv2d_9/Conv2D/ReadVariableOp", "shape": [3, 3, 1280, 256], "dtype": "float32"}, {"name": "StatefulPartitionedCall/model/conv2d_9/BiasAdd/ReadVariableOp", "shape": [256], "dtype": "float32"}, {"name": "StatefulPartitionedCall/model/conv2d_10/Conv2D/ReadVariableOp", "shape": [3, 3, 256, 256], "dtype": "float32"}, {"name": "StatefulPartitionedCall/model/conv2d_10/BiasAdd/ReadVariableOp", "shape": [256], "dtype": "float32"}, {"name": "StatefulPartitionedCall/model/conv2d_11/Conv2D/ReadVariableOp", "shape": [3, 3, 256, 256], "dtype": "float32"}, {"name": "StatefulPartitionedCall/model/conv2d_11/BiasAdd/ReadVariableOp", "shape": [256], "dtype": "float32"}, {"name": "StatefulPartitionedCall/model/conv2d_12/Conv2D/ReadVariableOp", "shape": [3, 3, 256, 256], "dtype": "float32"}, {"name": "StatefulPartitionedCall/model/conv2d_12/BiasAdd/ReadVariableOp", "shape": [256], "dtype": "float32"}, {"name": "StatefulPartitionedCall/model/conv2d_13/Conv2D/ReadVariableOp", "shape": [3, 3, 256, 256], "dtype": "float32"}, {"name": "StatefulPartitionedCall/model/conv2d_13/BiasAdd/ReadVariableOp", "shape": [256], "dtype": "float32"}, {"name": "StatefulPartitionedCall/model/conv2d_transpose_1/BiasAdd/ReadVariableOp", "shape": [128], "dtype": "float32"}, {"name": "StatefulPartitionedCall/model/block4_sepconv1/separable_conv2d/ReadVariableOp", "shape": [3, 3, 256, 1], "dtype": "float32"}, {"name": "StatefulPartitionedCall/model/block4_sepconv2/separable_conv2d/ReadVariableOp", "shape": [3, 3, 728, 1], "dtype": "float32"}, {"name": "StatefulPartitionedCall/model/conv2d_14/Conv2D/ReadVariableOp", "shape": [3, 3, 856, 128], "dtype": "float32"}, {"name": "StatefulPartitionedCall/model/conv2d_14/BiasAdd/ReadVariableOp", "shape": [128], "dtype": "float32"}, {"name": "StatefulPartitionedCall/model/conv2d_15/Conv2D/ReadVariableOp", "shape": [3, 3, 128, 128], "dtype": "float32"}, {"name": "StatefulPartitionedCall/model/conv2d_15/BiasAdd/ReadVariableOp", "shape": [128], "dtype": "float32"}, {"name": "StatefulPartitionedCall/model/conv2d_16/Conv2D/ReadVariableOp", "shape": [3, 3, 128, 128], "dtype": "float32"}, {"name": "StatefulPartitionedCall/model/conv2d_16/BiasAdd/ReadVariableOp", "shape": [128], "dtype": "float32"}, {"name": "StatefulPartitionedCall/model/conv2d_17/Conv2D/ReadVariableOp", "shape": [3, 3, 128, 128], "dtype": "float32"}, {"name": "StatefulPartitionedCall/model/conv2d_17/BiasAdd/ReadVariableOp", "shape": [128], "dtype": "float32"}, {"name": "StatefulPartitionedCall/model/conv2d_18/Conv2D/ReadVariableOp", "shape": [3, 3, 128, 128], "dtype": "float32"}, {"name": "StatefulPartitionedCall/model/conv2d_18/BiasAdd/ReadVariableOp", "shape": [128], "dtype": "float32"}, {"name": "StatefulPartitionedCall/model/conv2d_transpose_2/BiasAdd/ReadVariableOp", "shape": [64], "dtype": "float32"}, {"name": "StatefulPartitionedCall/model/block3_sepconv1/separable_conv2d/ReadVariableOp", "shape": [3, 3, 128, 1], "dtype": "float32"}, {"name": "StatefulPartitionedCall/model/block3_sepconv2/separable_conv2d/ReadVariableOp", "shape": [3, 3, 256, 1], "dtype": "float32"}, {"name": "StatefulPartitionedCall/model/zero_padding2d/Pad/paddings", "shape": [4, 2], "dtype": "int32"}, {"name": "StatefulPartitionedCall/model/conv2d_19/Conv2D/ReadVariableOp", "shape": [3, 3, 320, 64], "dtype": "float32"}, {"name": "StatefulPartitionedCall/model/conv2d_19/BiasAdd/ReadVariableOp", "shape": [64], "dtype": "float32"}, {"name": "StatefulPartitionedCall/model/conv2d_20/Conv2D/ReadVariableOp", "shape": [3, 3, 64, 64], "dtype": "float32"}, {"name": "StatefulPartitionedCall/model/conv2d_20/BiasAdd/ReadVariableOp", "shape": [64], "dtype": "float32"}, {"name": "StatefulPartitionedCall/model/conv2d_21/Conv2D/ReadVariableOp", "shape": [3, 3, 64, 64], "dtype": "float32"}, {"name": "StatefulPartitionedCall/model/conv2d_21/BiasAdd/ReadVariableOp", "shape": [64], "dtype": "float32"}, {"name": "StatefulPartitionedCall/model/conv2d_22/Conv2D/ReadVariableOp", "shape": [3, 3, 64, 64], "dtype": "float32"}, {"name": "StatefulPartitionedCall/model/conv2d_22/BiasAdd/ReadVariableOp", "shape": [64], "dtype": "float32"}, {"name": "StatefulPartitionedCall/model/conv2d_23/Conv2D/ReadVariableOp", "shape": [3, 3, 64, 64], "dtype": "float32"}, {"name": "StatefulPartitionedCall/model/conv2d_23/BiasAdd/ReadVariableOp", "shape": [64], "dtype": "float32"}, {"name": "StatefulPartitionedCall/model/conv2d_transpose_3/BiasAdd/ReadVariableOp", "shape": [32], "dtype": "float32"}, {"name": "StatefulPartitionedCall/model/block2_sepconv1/separable_conv2d/ReadVariableOp", "shape": [3, 3, 64, 1], "dtype": "float32"}, {"name": "StatefulPartitionedCall/model/block2_sepconv2/separable_conv2d/ReadVariableOp", "shape": [3, 3, 128, 1], "dtype": "float32"}, {"name": "StatefulPartitionedCall/model/zero_padding2d_1/Pad/paddings", "shape": [4, 2], "dtype": "int32"}, {"name": "StatefulPartitionedCall/model/concatenate/concat/axis", "shape": [], "dtype": "int32"}, {"name": "StatefulPartitionedCall/model/conv2d_24/Conv2D/ReadVariableOp", "shape": [3, 3, 160, 32], "dtype": "float32"}, {"name": "StatefulPartitionedCall/model/conv2d_24/BiasAdd/ReadVariableOp", "shape": [32], "dtype": "float32"}, {"name": "StatefulPartitionedCall/model/conv2d_25/Conv2D/ReadVariableOp", "shape": [3, 3, 32, 32], "dtype": "float32"}, {"name": "StatefulPartitionedCall/model/conv2d_25/BiasAdd/ReadVariableOp", "shape": [32], "dtype": "float32"}, {"name": "StatefulPartitionedCall/model/conv2d_26/Conv2D/ReadVariableOp", "shape": [3, 3, 32, 32], "dtype": "float32"}, {"name": "StatefulPartitionedCall/model/conv2d_26/BiasAdd/ReadVariableOp", "shape": [32], "dtype": "float32"}, {"name": "StatefulPartitionedCall/model/conv2d_27/Conv2D/ReadVariableOp", "shape": [3, 3, 32, 32], "dtype": "float32"}, {"name": "StatefulPartitionedCall/model/conv2d_27/BiasAdd/ReadVariableOp", "shape": [32], "dtype": "float32"}, {"name": "StatefulPartitionedCall/model/conv2d_28/Conv2D/ReadVariableOp", "shape": [3, 3, 32, 32], "dtype": "float32"}, {"name": "StatefulPartitionedCall/model/conv2d_28/BiasAdd/ReadVariableOp", "shape": [32], "dtype": "float32"}, {"name": "StatefulPartitionedCall/model/conv2d_transpose_4/BiasAdd/ReadVariableOp", "shape": [16], "dtype": "float32"}, {"name": "StatefulPartitionedCall/model/conv2d_29/Conv2D/ReadVariableOp", "shape": [3, 3, 16, 16], "dtype": "float32"}, {"name": "StatefulPartitionedCall/model/conv2d_29/BiasAdd/ReadVariableOp", "shape": [16], "dtype": "float32"}, {"name": "StatefulPartitionedCall/model/conv2d_30/Conv2D/ReadVariableOp", "shape": [3, 3, 16, 16], "dtype": "float32"}, {"name": "StatefulPartitionedCall/model/conv2d_30/BiasAdd/ReadVariableOp", "shape": [16], "dtype": "float32"}, {"name": "StatefulPartitionedCall/model/conv2d_31/Conv2D/ReadVariableOp", "shape": [3, 3, 16, 16], "dtype": "float32"}, {"name": "StatefulPartitionedCall/model/conv2d_31/BiasAdd/ReadVariableOp", "shape": [16], "dtype": "float32"}, {"name": "StatefulPartitionedCall/model/conv2d_32/Conv2D/ReadVariableOp", "shape": [3, 3, 16, 16], "dtype": "float32"}, {"name": "StatefulPartitionedCall/model/conv2d_32/BiasAdd/ReadVariableOp", "shape": [16], "dtype": "float32"}, {"name": "StatefulPartitionedCall/model/conv2d_33/Conv2D/ReadVariableOp", "shape": [3, 3, 16, 16], "dtype": "float32"}, {"name": "StatefulPartitionedCall/model/conv2d_33/BiasAdd/ReadVariableOp", "shape": [16], "dtype": "float32"}, {"name": "StatefulPartitionedCall/model/conv2d_34/Conv2D/ReadVariableOp", "shape": [1, 1, 16, 1], "dtype": "float32"}, {"name": "StatefulPartitionedCall/model/conv2d_34/BiasAdd/ReadVariableOp", "shape": [1], "dtype": "float32"}, {"name": "StatefulPartitionedCall/model/batch_normalization_5/FusedBatchNorm/Scaled", "shape": [512], "dtype": "float32"}, {"name": "StatefulPartitionedCall/model/batch_normalization_4/FusedBatchNorm/Offset", "shape": [512], "dtype": "float32"}, {"name": "StatefulPartitionedCall/model/batch_normalization_4/FusedBatchNorm/Scaled", "shape": [512], "dtype": "float32"}, {"name": "StatefulPartitionedCall/model/batch_normalization_6/FusedBatchNorm/Offset", "shape": [512], "dtype": "float32"}, {"name": "StatefulPartitionedCall/model/batch_normalization_6/FusedBatchNorm/Scaled", "shape": [512], "dtype": "float32"}, {"name": "StatefulPartitionedCall/model/batch_normalization_7/FusedBatchNorm/Scaled", "shape": [512], "dtype": "float32"}, {"name": "StatefulPartitionedCall/model/batch_normalization_9/FusedBatchNorm/Scaled", "shape": [512], "dtype": "float32"}, {"name": "StatefulPartitionedCall/model/batch_normalization_8/FusedBatchNorm/Offset", "shape": [512], "dtype": "float32"}, {"name": "StatefulPartitionedCall/model/batch_normalization_8/FusedBatchNorm/Scaled", "shape": [512], "dtype": "float32"}, {"name": "StatefulPartitionedCall/model/batch_normalization_10/FusedBatchNorm/Offset", "shape": [512], "dtype": "float32"}, {"name": "StatefulPartitionedCall/model/batch_normalization_10/FusedBatchNorm/Scaled", "shape": [512], "dtype": "float32"}, {"name": "StatefulPartitionedCall/model/batch_normalization_11/FusedBatchNorm/Scaled", "shape": [512], "dtype": "float32"}, {"name": "StatefulPartitionedCall/model/batch_normalization_13/FusedBatchNorm/Scaled", "shape": [256], "dtype": "float32"}, {"name": "StatefulPartitionedCall/model/batch_normalization_12/FusedBatchNorm/Offset", "shape": [256], "dtype": "float32"}, {"name": "StatefulPartitionedCall/model/batch_normalization_12/FusedBatchNorm/Scaled", "shape": [256], "dtype": "float32"}, {"name": "StatefulPartitionedCall/model/batch_normalization_14/FusedBatchNorm/Offset", "shape": [256], "dtype": "float32"}, {"name": "StatefulPartitionedCall/model/batch_normalization_14/FusedBatchNorm/Scaled", "shape": [256], "dtype": "float32"}, {"name": "StatefulPartitionedCall/model/batch_normalization_15/FusedBatchNorm/Scaled", "shape": [256], "dtype": "float32"}, {"name": "StatefulPartitionedCall/model/batch_normalization_17/FusedBatchNorm/Scaled", "shape": [256], "dtype": "float32"}, {"name": "StatefulPartitionedCall/model/batch_normalization_16/FusedBatchNorm/Offset", "shape": [256], "dtype": "float32"}, {"name": "StatefulPartitionedCall/model/batch_normalization_16/FusedBatchNorm/Scaled", "shape": [256], "dtype": "float32"}, {"name": "StatefulPartitionedCall/model/batch_normalization_18/FusedBatchNorm/Offset", "shape": [256], "dtype": "float32"}, {"name": "StatefulPartitionedCall/model/batch_normalization_18/FusedBatchNorm/Scaled", "shape": [256], "dtype": "float32"}, {"name": "StatefulPartitionedCall/model/batch_normalization_19/FusedBatchNorm/Scaled", "shape": [256], "dtype": "float32"}, {"name": "StatefulPartitionedCall/model/batch_normalization_21/FusedBatchNorm/Scaled", "shape": [128], "dtype": "float32"}, {"name": "StatefulPartitionedCall/model/batch_normalization_20/FusedBatchNorm/Offset", "shape": [128], "dtype": "float32"}, {"name": "StatefulPartitionedCall/model/batch_normalization_20/FusedBatchNorm/Scaled", "shape": [128], "dtype": "float32"}, {"name": "StatefulPartitionedCall/model/batch_normalization_22/FusedBatchNorm/Offset", "shape": [128], "dtype": "float32"}, {"name": "StatefulPartitionedCall/model/batch_normalization_22/FusedBatchNorm/Scaled", "shape": [128], "dtype": "float32"}, {"name": "StatefulPartitionedCall/model/batch_normalization_23/FusedBatchNorm/Scaled", "shape": [128], "dtype": "float32"}, {"name": "StatefulPartitionedCall/model/batch_normalization_25/FusedBatchNorm/Scaled", "shape": [128], "dtype": "float32"}, {"name": "StatefulPartitionedCall/model/batch_normalization_24/FusedBatchNorm/Offset", "shape": [128], "dtype": "float32"}, {"name": "StatefulPartitionedCall/model/batch_normalization_24/FusedBatchNorm/Scaled", "shape": [128], "dtype": "float32"}, {"name": "StatefulPartitionedCall/model/batch_normalization_26/FusedBatchNorm/Offset", "shape": [128], "dtype": "float32"}, {"name": "StatefulPartitionedCall/model/batch_normalization_26/FusedBatchNorm/Scaled", "shape": [128], "dtype": "float32"}, {"name": "StatefulPartitionedCall/model/batch_normalization_27/FusedBatchNorm/Scaled", "shape": [128], "dtype": "float32"}, {"name": "StatefulPartitionedCall/model/batch_normalization_29/FusedBatchNorm/Scaled", "shape": [64], "dtype": "float32"}, {"name": "StatefulPartitionedCall/model/batch_normalization_28/FusedBatchNorm/Offset", "shape": [64], "dtype": "float32"}, {"name": "StatefulPartitionedCall/model/batch_normalization_28/FusedBatchNorm/Scaled", "shape": [64], "dtype": "float32"}, {"name": "StatefulPartitionedCall/model/batch_normalization_30/FusedBatchNorm/Offset", "shape": [64], "dtype": "float32"}, {"name": "StatefulPartitionedCall/model/batch_normalization_30/FusedBatchNorm/Scaled", "shape": [64], "dtype": "float32"}, {"name": "StatefulPartitionedCall/model/batch_normalization_31/FusedBatchNorm/Scaled", "shape": [64], "dtype": "float32"}, {"name": "StatefulPartitionedCall/model/batch_normalization_33/FusedBatchNorm/Scaled", "shape": [64], "dtype": "float32"}, {"name": "StatefulPartitionedCall/model/batch_normalization_32/FusedBatchNorm/Offset", "shape": [64], "dtype": "float32"}, {"name": "StatefulPartitionedCall/model/batch_normalization_32/FusedBatchNorm/Scaled", "shape": [64], "dtype": "float32"}, {"name": "StatefulPartitionedCall/model/batch_normalization_34/FusedBatchNorm/Offset", "shape": [64], "dtype": "float32"}, {"name": "StatefulPartitionedCall/model/batch_normalization_34/FusedBatchNorm/Scaled", "shape": [64], "dtype": "float32"}, {"name": "StatefulPartitionedCall/model/batch_normalization_35/FusedBatchNorm/Scaled", "shape": [64], "dtype": "float32"}, {"name": "StatefulPartitionedCall/model/batch_normalization_37/FusedBatchNorm/Scaled", "shape": [32], "dtype": "float32"}, {"name": "StatefulPartitionedCall/model/batch_normalization_36/FusedBatchNorm/Offset", "shape": [32], "dtype": "float32"}, {"name": "StatefulPartitionedCall/model/batch_normalization_36/FusedBatchNorm/Scaled", "shape": [32], "dtype": "float32"}, {"name": "StatefulPartitionedCall/model/batch_normalization_38/FusedBatchNorm/Offset", "shape": [32], "dtype": "float32"}, {"name": "StatefulPartitionedCall/model/batch_normalization_38/FusedBatchNorm/Scaled", "shape": [32], "dtype": "float32"}, {"name": "StatefulPartitionedCall/model/batch_normalization_39/FusedBatchNorm/Scaled", "shape": [32], "dtype": "float32"}, {"name": "StatefulPartitionedCall/model/batch_normalization_41/FusedBatchNorm/Scaled", "shape": [32], "dtype": "float32"}, {"name": "StatefulPartitionedCall/model/batch_normalization_40/FusedBatchNorm/Offset", "shape": [32], "dtype": "float32"}, {"name": "StatefulPartitionedCall/model/batch_normalization_40/FusedBatchNorm/Scaled", "shape": [32], "dtype": "float32"}, {"name": "StatefulPartitionedCall/model/batch_normalization_42/FusedBatchNorm/Offset", "shape": [32], "dtype": "float32"}, {"name": "StatefulPartitionedCall/model/batch_normalization_42/FusedBatchNorm/Scaled", "shape": [32], "dtype": "float32"}, {"name": "StatefulPartitionedCall/model/batch_normalization_43/FusedBatchNorm/Scaled", "shape": [32], "dtype": "float32"}, {"name": "StatefulPartitionedCall/model/batch_normalization_45/FusedBatchNorm/Scaled", "shape": [16], "dtype": "float32"}, {"name": "StatefulPartitionedCall/model/batch_normalization_44/FusedBatchNorm/Offset", "shape": [16], "dtype": "float32"}, {"name": "StatefulPartitionedCall/model/batch_normalization_44/FusedBatchNorm/Scaled", "shape": [16], "dtype": "float32"}, {"name": "StatefulPartitionedCall/model/batch_normalization_46/FusedBatchNorm/Offset", "shape": [16], "dtype": "float32"}, {"name": "StatefulPartitionedCall/model/batch_normalization_46/FusedBatchNorm/Scaled", "shape": [16], "dtype": "float32"}, {"name": "StatefulPartitionedCall/model/batch_normalization_47/FusedBatchNorm/Scaled", "shape": [16], "dtype": "float32"}, {"name": "StatefulPartitionedCall/model/batch_normalization_49/FusedBatchNorm/Scaled", "shape": [16], "dtype": "float32"}, {"name": "StatefulPartitionedCall/model/batch_normalization_48/FusedBatchNorm/Offset", "shape": [16], "dtype": "float32"}, {"name": "StatefulPartitionedCall/model/batch_normalization_48/FusedBatchNorm/Scaled", "shape": [16], "dtype": "float32"}, {"name": "StatefulPartitionedCall/model/batch_normalization_50/FusedBatchNorm/Offset", "shape": [16], "dtype": "float32"}, {"name": "StatefulPartitionedCall/model/batch_normalization_50/FusedBatchNorm/Scaled", "shape": [16], "dtype": "float32"}, {"name": "StatefulPartitionedCall/model/batch_normalization_51/FusedBatchNorm/Scaled", "shape": [16], "dtype": "float32"}]}]}